checkpoint1_actor1.pth (torch_old, 159230 bytes, 6 tensors)

fc1.weight f4 [256, 24]
000000 e0 20 36 3e 2a 11 04 be 4d 7e bd 3b cd a1 82 3e
       0.17785978 -0.12897173 0.0057828785 0.2551407
000010 aa 1b a7 bc 52 62 43 bf 01 34 29 3c c3 0f aa 3e
       -0.020398933 -0.763219 0.01032734 0.3321515
000020 76 87 15 bd c6 19 a5 be cf f9 8e bc 65 8c 0a be
       -0.03650614 -0.32246226 -0.017453102 -0.13530119
000030 ed 9e 3f be ec 82 08 bd 0c b1 36 3d 40 25 a8 bd
       -0.18712969 -0.03332798 0.04460244 -0.0821023
000040 da 98 0f be a2 52 fa be 4e 1c c1 bd 75 1e 98 be
       -0.14023152 -0.4889117 -0.09429227 -0.29710737
000050 28 38 bc be 83 f0 e3 3e 4c a7 ec bc cd 3e af be
       -0.36761594 0.44519433 -0.028888367 -0.342276
000060 47 c3 7c 3e 56 a5 38 3f 47 26 a3 bd af a5 5f 3e
       0.24683867 0.7212728 -0.07966285 0.21840547
000070 6f de 8b be 33 47 00 bf 03 b5 91 bd 92 aa 00 3e
       -0.2731814 -0.5010864 -0.07114603 0.12565067
000080 9c 11 b9 3e 09 b3 61 3f 40 c5 60 bd 38 01 83 bd
       0.36146247 0.8816381 -0.054875612 -0.06396717
000090 46 82 35 be e8 80 c2 bd dc 80 d1 bd f0 cc 5c bd
       -0.17725477 -0.09497243 -0.10229656 -0.05390638
0000a0 2d c8 b8 3e 08 dd 63 3f d5 c6 a7 be a5 fc 2d 3e
       0.36090222 0.8900914 -0.32768884 0.16990907
0000b0 3f cd 05 be d3 d3 89 3e b5 a0 90 be 53 c0 06 3e
       -0.13066576 0.26919422 -0.2824761 0.13159303
0000c0 46 af d1 3d 1f e0 52 3f c1 49 46 be ec 3e 8a 3e
       0.10238509 0.8237323 -0.19364072 0.2700113
0000d0 a6 44 bb 3c 70 a9 46 be 14 85 8d be a0 3c 5d 3e
       0.022859883 -0.19400573 -0.27640593 0.21605158
0000e0 32 59 31 3e 1e 74 53 3f b4 40 ba be c6 e6 10 3e
       0.17319182 0.82599056 -0.3637749 0.14150533
0000f0 c2 eb 0d 3e 35 15 b9 39 24 6e b0 be 72 36 25 3e
       0.13859466 0.0003530175 -0.3445903 0.1613405
000100 40 de 86 3e 74 aa 60 3f c0 eb 1e 3e 8c 89 d9 bd
       0.26341438 0.8776009 0.15519619 -0.10621938
000110 2a 64 bc 3e aa 14 1f 3e b0 69 4e 3e 33 bd fe bc
       0.3679517 0.15535226 0.20157504 -0.031096077
000120 e8 37 1f 3d d3 64 77 be be e6 36 3e 2a aa 44 bd
       0.038871676 -0.24159555 0.17861459 -0.048013844
000130 59 81 4b bf e5 31 89 3e dc 4a 4f 3e b8 2d 61 bd
       -0.79494244 0.2679588 0.202434 -0.05497524
000140 95 93 f4 3d 8b b5 ca bd 0f 63 4c be 31 fc b7 3e
       0.119422115 -0.09897908 -0.19959663 0.35934594
000150 b9 95 f8 bb 62 dc 41 3d 95 03 25 be 1f c5 dc 3e
       -0.0075862077 0.047329314 -0.16114648 0.4311914
000160 27 cf a0 3e f0 c3 00 3d 2f 4f 7e be a7 d5 04 3e
       0.31408045 0.03143686 -0.24834894 0.12972127
000170 35 79 1b 3f 11 d2 50 be 60 82 1b be f2 19 23 3e
       0.6073182 -0.20392634 -0.15186453 0.15927866
000180 27 16 73 bd 71 b8 c2 3f 11 c9 ad 3b a5 f3 bf 3e
       -0.059347298 1.5212537 0.00530351 0.37490574
000190 0a 3e 44 bf 3f 66 38 3e 53 b3 cd bd b5 f7 9a 3e
       -0.76657164 0.18007754 -0.10043969 0.3026711
0001a0 17 37 34 3a 68 fe c4 3f ef b9 56 ba cd 13 d9 3d
       0.0006874664 1.5390139 -0.00081911584 0.1059948
0001b0 2c 18 41 be 18 53 03 bf 4f 60 ad 3c 57 77 31 3e
       -0.18856877 -0.51298666 0.021164088 0.17330681
0001c0 fc 92 2c 3e 16 1d d3 3f 1e 3f c9 bc f5 4b c1 3d
       0.16852945 1.6493251 -0.02456623 0.09438316
0001d0 f5 ee 11 3e 6b c1 dd bf e0 a3 66 3c 71 8a 26 3e
       0.14251311 -1.7324651 0.014077157 0.16263749
0001e0 3a 5a 08 3e 0c 16 0a 3f ac 6b 85 3c c6 c9 36 3d
       0.13315669 0.5393989 0.016286694 0.04462602
0001f0 a7 dd 0f 3d be 5c f5 3c 8e 89 c1 3d 59 ba 80 3d
       0.035123494 0.02995145 0.094500646 0.06285543
000200 26 c8 44 3e 8f 70 2d 3f a5 87 8b 3d db ae 51 3d
       0.19216976 0.67749876 0.068129815 0.051192146
000210 31 33 74 3e 27 88 29 bd 17 fb 0a 3e 8b 09 9e 3d
       0.23847653 -0.04138961 0.13572346 0.07716664
000220 7e d8 d8 3e 6a 34 2a 3f d1 ad 5d 3e d4 2e 77 be
       0.4235267 0.6648623 0.21648337 -0.24138957
000230 7b 8a 20 3f 18 79 da bb 87 1e 66 3e fb 00 89 be
       0.62711304 -0.0066672675 0.22472583 -0.2675856
000240 2e b0 3c be 54 9d f6 3e a0 ac 69 bd ec 08 73 3e
       -0.18426582 0.48166907 -0.057049394 0.23733872
000250 c4 4c a1 bd bb 0d 56 bf d8 81 f2 bc 30 5c a7 3e
       -0.0787597 -0.836147 -0.02960293 0.3268752
000260 56 76 44 bd da 43 c3 3e 35 40 ff 3d 75 28 32 be
       -0.047964416 0.38137704 0.124634184 -0.17398246
000270 5d 1e 01 3e da e6 3a bf 49 be d3 3d 4d b9 29 be
       0.12609239 -0.730085 0.103390284 -0.16574593
000280 21 a8 4b bd c4 2a cd 3e 52 c3 b6 3d 22 00 91 3c
       -0.049720887 0.4007169 0.08923973 0.017700259
000290 c8 80 dc 3e 88 d3 96 bf 9a 8e b2 3d a0 82 46 3d
       0.43067002 -1.1783304 0.08718605 0.048464417
0002a0 e2 09 34 3d be eb 30 be 2b 6c 1a be f8 b1 6f bd
       0.043954737 -0.17277429 -0.15080325 -0.058519334
0002b0 74 5d 29 bf c2 06 6a bf 56 af fb bd c9 ac d5 bd
       -0.66158223 -0.9141656 -0.12289302 -0.10433347
0002c0 4b 1f 97 3d 82 ac ae bd 41 ba d3 3c 34 ed d2 3e
       0.073790155 -0.08528997 0.025845649 0.41196597
0002d0 d7 76 88 3d 91 b9 39 bf f0 cb 20 3d 38 c5 d6 3e
       0.06663292 -0.72548777 0.03925699 0.4194734
0002e0 82 9c 9f 3e 01 d2 c8 3d dc 79 bb 3d dc 92 f6 3e
       0.31174093 0.0980568 0.09154102 0.4815892
0002f0 c3 9f 30 3f 3e 44 a1 be 85 1f 2c 3e e0 98 ec 3e
       0.6899378 -0.31497377 0.16808899 0.46210384
000300 4a d0 49 3e 38 31 d9 3d 47 e1 ae 3e 0e b4 7a be
       0.19708362 0.10605091 0.34156248 -0.24482748
000310 85 2c b8 3e d3 37 d1 be e7 22 b0 3e 8d 56 8a be
       0.35971466 -0.40862903 0.34401628 -0.27019158
000320 c1 d9 a8 3e d1 ea 02 3e 74 13 05 3d e7 26 03 bf
       0.32978633 0.12784888 0.032489255 -0.51231235
000330 69 62 48 3e 0a 56 9c be 3a df 57 3d 46 a3 f9 be
       0.1956879 -0.30534393 0.05270312 -0.4875738
000340 a6 d8 d9 3e 08 d3 ec 3d 52 11 e4 3d 2c 21 4f 3e
       0.42548102 0.115636885 0.11136116 0.20227498
000350 db be 92 bd b0 07 d0 bd cd f3 09 3d 62 44 0b 3e
       -0.07165309 -0.10157716 0.033679772 0.13600305
000360 ff 56 48 3e 9a e7 01 3f 30 50 09 bd fb e0 08 be
       0.19564436 0.5074402 -0.03352374 -0.13367073
000370 ff a8 4a be 63 28 27 3f 32 cc 2a bd 05 bc ed bd
       -0.1979103 0.65296 -0.041698642 -0.116081275
000380 8d 7b 10 3e 85 46 ca 3e 73 53 e8 bb 03 b3 39 be
       0.14109631 0.39506927 -0.007090026 -0.18134694
000390 f1 b3 8b 3e 07 d0 ca 3e a6 75 56 bd 7f d7 80 be
       0.27285722 0.39611837 -0.052358292 -0.2516441
0003a0 26 a6 96 3e 61 33 d8 3e 50 75 ee bd 2c e5 6b be
       0.29423636 0.422267 -0.11643469 -0.23036641
0003b0 51 f6 42 3f 4b de 42 be 5f 93 9f bc 45 52 83 be
       0.761571 -0.1903011 -0.019479452 -0.25648704
0003c0 bf 5e ad 3e d0 d0 f8 3e 9d c1 df bc 66 c6 83 be
       0.33861348 0.4859681 -0.027314002 -0.25737303
0003d0 a1 bf a6 3e fd 01 81 bd bf ba 8e bd 39 71 4e be
       0.32568076 -0.06299207 -0.06969213 -0.20160379
0003e0 4a 83 fd 3e 5e 82 1e 3f db fc 91 be f2 26 4c be
       0.49514228 0.61917675 -0.28513226 -0.19936731
0003f0 36 30 a9 3e 74 74 30 bb 6f 2a a7 be ff 26 36 be
       0.33044595 -0.002692488 -0.32649562 -0.17788313

fc1.bias f4 [256]
000000 31 16 1d 3e 3c f8 86 be 57 41 91 be a7 af 3a be
       0.15340497 -0.26361263 -0.28370163 -0.18231069
000010 c4 0b 97 bd c6 79 3e bf 0e 7f 9d be 40 4d ee be
       -0.07375291 -0.7440456 -0.30760998 -0.46543312
000020 06 c7 38 bf 87 9d af be 93 9b f3 be 30 be 07 bf
       -0.72178686 -0.3429987 -0.4757963 -0.5302458
000030 f2 0f 95 be e6 59 59 bf c6 60 99 bc 32 c7 4a be
       -0.29113728 -0.849028 -0.018722903 -0.1980255
000040 31 05 b6 3d 0a 0a 9e be 3d 70 aa be 6f 40 87 be
       0.08887709 -0.30867034 -0.33288756 -0.26416346
000050 99 35 82 be 48 7d f4 be 98 21 cb be 29 93 5d bd
       -0.25431517 -0.47751832 -0.39674067 -0.05409542
000060 42 1f 08 bf 0c ff 18 bf 91 b1 18 3e b9 15 a5 3e
       -0.53172696 -0.5976417 0.14911486 0.32243136
000070 0a 9d 1b bf 71 11 ec 3e 3d f5 09 bf 13 d5 36 bf
       -0.607865 0.46107057 -0.5388983 -0.71418875
000080 73 de 7e be eb bf 84 3d 9d 21 85 be 21 e2 99 be
       -0.24889545 0.06481918 -0.26002207 -0.30055335
000090 98 e5 18 be bc 3b 35 3e ae 3e a6 be 81 0e b7 3c
       -0.14931333 0.17698568 -0.32469696 0.022345783
0000a0 ad 40 d5 bd 78 6f 87 be f1 cd 91 be 9a f6 09 bf
       -0.104127266 -0.2645223 -0.28477433 -0.5389191
0000b0 13 c2 a3 be fe a8 b5 be 1b 21 1c bf 09 ce 07 bf
       -0.31984004 -0.35480493 -0.60988015 -0.5304876
0000c0 06 1a 89 3b 16 79 b1 be a3 b0 23 bf 15 f0 da bc
       0.0041840104 -0.34662694 -0.639414 -0.026725808
0000d0 44 bf 22 bf 45 d6 cc be f2 17 b9 be 17 02 c3 be
       -0.635731 -0.40007225 -0.3615108 -0.38087532
0000e0 54 66 bc be e8 dd f1 bd fb 19 df be c2 c0 f1 bd
       -0.3679682 -0.118099034 -0.4357451 -0.11804344
0000f0 15 eb da be c9 d3 02 be 54 63 03 bf b1 c0 00 be
       -0.42757478 -0.12776102 -0.5132344 -0.12573506
000100 47 eb ba be 12 bd c5 3d 04 5a bf be ed 3a 68 be
       -0.36507627 0.09655203 -0.37373364 -0.22678728
000110 83 9f b5 be d1 f0 09 bf d9 08 15 bf f4 89 22 bf
       -0.3547326 -0.5388308 -0.58216625 -0.6349175
000120 13 2d 00 bf 23 45 da be 2e 5a 0b be 5e df 62 be
       -0.5006878 -0.42630872 -0.1360862 -0.2215552
000130 fe 0d ac be a7 e5 97 be 25 f7 8e be 27 b5 b4 be
       -0.33604425 -0.29667398 -0.2792293 -0.35294458
000140 a4 2b ec bd b6 cd d0 3e 48 8e 09 bf 92 02 95 be
       -0.11531761 0.40781945 -0.5373273 -0.29103523
000150 4f 0d 13 3e e0 b3 e4 be 19 8b fc be 0e bd 7c be
       0.14360546 -0.44668484 -0.49324873 -0.24681494
000160 41 40 cc be 05 f3 cd be 5a 4c 95 be db 4a 41 be
       -0.39892772 -0.40224472 -0.29159814 -0.18876211
000170 e5 05 9b be 8e d4 23 be a1 f7 9f be f4 02 27 bf
       -0.30277935 -0.15999052 -0.31243613 -0.6523888
000180 8f 5a ab be 4d 43 ed be a8 c7 cd be fa c2 b1 be
       -0.33467528 -0.4634041 -0.40191388 -0.34719068
000190 a0 4d f6 be 8e 8d ea be 95 a4 49 be 6b 5a 06 be
       -0.48106098 -0.45811123 -0.1969169 -0.13120429
0001a0 46 82 17 bf ff 85 6d bd c1 4a a2 be 6e 16 02 bf
       -0.59183156 -0.057989117 -0.31697658 -0.50815475
0001b0 31 ff 00 3f 41 56 44 be 84 64 b6 be 91 b5 5e be
       0.5038939 -0.19173528 -0.35623562 -0.2174895
0001c0 03 a0 31 be d2 92 14 bf a6 54 b3 be 06 37 32 bf
       -0.17346196 -0.5803653 -0.3502552 -0.6961521
0001d0 73 e7 64 be bd 17 7c 3c 46 ec b0 be fc 16 66 bd
       -0.22353916 0.015386519 -0.34555262 -0.056174263
0001e0 8a 1f c2 be 77 59 78 3d c7 b0 35 be 17 55 c4 be
       -0.37914687 0.060632195 -0.17743216 -0.38346168
0001f0 59 83 5d 3e 71 4e 52 be 10 f7 37 be 57 8a 96 bd
       0.21632136 -0.20537736 -0.1796534 -0.07350605
000200 d8 0c 7e be aa e2 94 be 99 08 73 be 7d b7 36 be
       -0.24809587 -0.2907918 -0.23733748 -0.17843433
000210 ea 16 3d bf 2f 37 dc be b5 06 c9 3e c6 df 72 3e
       -0.7386309 -0.43010852 0.3926293 0.23718175
000220 bc 4e b7 bd 59 cd 36 be 78 ae cb bd e8 a7 46 bd
       -0.08950564 -0.17851771 -0.09945387 -0.04849997
000230 75 a5 11 bf b5 6e 14 be ba e7 10 3d 7f 7e 75 3e
       -0.5689309 -0.14495356 0.03537724 0.23974036
000240 f0 93 43 bd a6 63 1f bf 02 99 01 bf 02 41 39 be
       -0.047748506 -0.62261426 -0.50624096 -0.18091205
000250 32 e4 eb be 52 ba fd 3d 85 29 a4 be 0e 96 e6 3d
       -0.46072537 0.123890534 -0.32062927 0.112590894
000260 5a d6 77 be 13 53 e3 be 61 73 6d bd 6a 06 d9 be
       -0.24202862 -0.44399318 -0.057971362 -0.42387706
000270 80 45 21 be e0 b3 7c be c3 42 c3 3e be f8 ff 3c
       -0.15749168 -0.24677992 0.38136873 0.03124654
000280 96 9d 59 bf 88 35 2d be 85 26 80 be 02 8e d1 be
       -0.8500608 -0.16914952 -0.25029388 -0.40928656
000290 88 85 b0 be 30 75 c5 be 9e 4d a6 bc 92 91 7a bc
       -0.34476876 -0.3856597 -0.020300683 -0.015293496
0002a0 10 f0 10 bb b3 e0 8a bd 3f ae ee bb d9 ea b1 be
       -0.0022115745 -0.06781139 -0.0072839553 -0.34749487
0002b0 fe e8 a5 be ad 8b d8 be d7 da 17 bf c0 e3 dd be
       -0.3240432 -0.42294064 -0.593183 -0.43337822
0002c0 b3 05 df be 4a 95 a2 3c 17 05 e8 be de 58 bf bd
       -0.43559036 0.019846577 -0.45316383 -0.09343122
0002d0 04 75 48 3e d1 f5 85 3e fb 4a bf 3d d7 13 0f bf
       0.19575888 0.26164106 0.09340473 -0.5588965
0002e0 13 82 d9 bd 68 f5 ae be 62 68 b6 be 73 77 f5 be
       -0.10620513 -0.34171605 -0.35626513 -0.47942695
0002f0 4e 6c 2f be 2a 24 aa be b5 c7 51 3e 02 8d da be
       -0.17131159 -0.33230716 0.20486338 -0.42685705
000300 b2 2c bb be 06 49 38 bf 96 d7 cf 3c 13 14 ec be
       -0.36557537 -0.71986425 0.025371354 -0.46109065
000310 4d 77 f0 be 30 cc ab be 1b 43 16 be 65 05 6c be
       -0.4696602 -0.3355422 -0.14674036 -0.23048933
000320 32 81 86 3d 03 f9 27 bf 90 e2 c9 be 49 90 38 be
       0.06567611 -0.65614337 -0.39430666 -0.1802379
000330 59 2f 8b be 90 5c a8 bd f1 78 b3 be 45 e3 b7 bd
       -0.2718456 -0.0822078 -0.35053208 -0.08978895
000340 5a 0f 0e bf 30 51 0d bf 3b 5c c2 bd 11 ac 48 be
       -0.55492175 -0.5520201 -0.09490248 -0.19596888
000350 d0 34 80 3e 58 4c 98 be 30 b7 c1 be 6a 95 54 be
       0.25040293 -0.29745746 -0.37835073 -0.20760122
000360 81 21 8a bd 43 52 77 be 32 d8 91 be e2 b8 44 bf
       -0.067446716 -0.24152474 -0.28485256 -0.7684461
000370 c0 14 85 be a2 46 e8 3c 2e 10 fd 3d 0f 5e 8c bd
       -0.25992393 0.028353993 0.12356602 -0.06853878
000380 94 27 80 be b4 b7 82 be 70 57 bd bd 20 a0 0f bf
       -0.25030196 -0.2553078 -0.09245193 -0.56103706
000390 b5 cc ea be 6d f5 91 be cd e6 df 3e c0 48 0e 3e
       -0.45859304 -0.28507558 0.43730775 0.1389494
0003a0 8e 79 f6 be f7 81 a2 be 89 61 9d bd b9 a8 23 be
       -0.48139614 -0.3173978 -0.07684619 -0.15982331
0003b0 ab 5c 35 3e b6 e3 f6 3c af f3 b2 be 12 5e d9 bd
       0.17711131 0.030137878 -0.3495154 -0.106136456
0003c0 f5 1f f3 bd 37 df a6 be 8b b0 d3 be 3e 38 03 3f
       -0.1187133 -0.32592174 -0.4134563 0.51257694
0003d0 16 f1 72 3e e3 39 86 3b fc 6f e2 bd e8 36 9a be
       0.2372478 0.004096256 -0.110565156 -0.30120015
0003e0 3c 0c 8b be 53 79 81 be bd c9 0d bd ee d3 3a bf
       -0.27157772 -0.25287876 -0.03461622 -0.7297963
0003f0 02 7d 3d 3e 65 77 36 3e 6d 46 0d bf 4a ef c4 3d
       0.18504718 0.17818983 -0.55185586 0.09615953

fc2.weight f4 [128, 256]
000000 54 26 99 bd 6c 56 f7 bd 13 dd 5f 3c 3d 71 42 bd
       -0.07478014 -0.120770305 0.013663548 -0.047471274
000010 33 9c 3d bd 0d ea 56 bd cc 09 96 bc 6c 29 55 3d
       -0.04629154 -0.052469302 -0.018315218 0.052041456
000020 f8 3c 5f bd ce db de 3c c0 b6 a8 bd 9a 68 cc bd
       -0.054501504 0.02720442 -0.08237982 -0.09980889
000030 d0 e4 23 be 57 3c 10 be 86 bd a5 ba 55 65 4e 3d
       -0.16005254 -0.14085518 -0.0012644983 0.050389607
000040 9c 03 fc 3b 7b a8 3d bd 41 4a 80 bd 57 d9 da bd
       0.00769086 -0.046303254 -0.06264163 -0.106859855
000050 b0 c8 07 bd bf d9 de 3c 6e 72 7c bb 7c 72 80 3a
       -0.033150375 0.027203439 -0.0038520354 0.0009799744
000060 73 0d a4 bd 73 62 84 bd b0 f9 af bd 60 20 ec bd
       -0.08010378 -0.0646409 -0.08592546 -0.115296125
000070 3b d2 45 bd 23 a2 05 be ca 4c e5 3d 53 de 09 be
       -0.048296195 -0.13050131 0.11196287 -0.13463716
000080 7b 65 47 3c f9 8e 01 bd eb 00 72 3d 2d bb 3d bc
       0.012170191 -0.03163049 0.059082907 -0.011580271
000090 26 29 76 3c 3b 86 b8 bd 65 69 47 3c 59 ef 59 3d
       0.015024459 -0.090099774 0.012171124 0.053206775
0000a0 e0 e4 8d 3c 05 6f 9c bc 6c d7 02 bd 43 2c ff bd
       0.01732105 -0.019095907 -0.031943724 -0.12459614
0000b0 62 bc a3 3b 7f c7 c4 3d 5f 29 99 3d f1 bc 8e bd
       0.004996822 0.09608363 0.07478594 -0.069696315
0000c0 b9 2b e9 3b 6c 59 98 bc 77 e1 b3 bd b2 78 6c bd
       0.007115808 -0.018597327 -0.087832384 -0.05773229
0000d0 98 42 9d bd c0 91 d3 bd 51 51 90 bc 08 2d b5 bd
       -0.076787174 -0.10330534 -0.0176169 -0.0884648
0000e0 63 27 24 3d 9d 89 22 bd cb f5 d9 bd 5f 82 09 bd
       0.040076625 -0.03968202 -0.106425844 -0.033571597
0000f0 42 2b c9 bd 6c f1 f2 3d cb 76 13 3d 76 9c 36 bd
       -0.09822704 0.11862454 0.03600196 -0.044582807
000100 4b 95 79 bd c5 c6 46 bd 5b 3a 4a bd 1a 24 7d bc
       -0.060933392 -0.048529405 -0.04937206 -0.015450502
000110 af be 5e be f3 bf 7b bb 44 94 9d bd ee c9 bb bd
       -0.21752428 -0.0038413971 -0.07694295 -0.091693744
000120 fc 83 12 bd b5 16 5b 3c d4 47 41 bd 71 d3 23 bc
       -0.0357704 0.013372113 -0.04718764 -0.009999142
000130 fe e2 ea bd 06 37 50 be 8e 69 4f bc 49 4d c8 bd
       -0.114690766 -0.2033349 -0.012659444 -0.09780366
000140 43 e5 42 bd db f2 05 be 61 2b 8b bd d5 2d 1b 3d
       -0.047581922 -0.13080923 -0.06795383 0.037885506
000150 9c ee 28 bd 46 38 53 bd c4 a7 97 bd 59 5e 2d bd
       -0.04124318 -0.05156734 -0.07405046 -0.042326305
000160 6a c6 96 bd 28 9b 92 3b c0 01 f2 3c 78 5c 17 bd
       -0.07362063 0.0044740625 0.02954185 -0.03695342
000170 d2 dc 26 be a5 cf 70 3b 20 9c 37 be c1 01 ab bd
       -0.16295174 0.003674486 -0.1793065 -0.08349944
000180 4c 90 10 bc 50 64 2a bd 43 47 d6 3d df 97 14 be
       -0.008823466 -0.04159957 0.10462811 -0.14511059
000190 67 28 86 bd 53 4f 8c 3d 7d ea cd bc 71 1d 46 3d
       -0.06550675 0.068510674 -0.025136227 0.04836792
0001a0 c2 c1 9b bc 2d 0f 8c bd 7f e0 04 bd cc a8 91 3d
       -0.01901329 -0.06838832 -0.03244066 0.071122736
0001b0 02 69 d0 bd ed 29 94 3c ae d9 07 be a1 71 54 bd
       -0.10176279 0.018086398 -0.13266632 -0.051866177
0001c0 64 e2 5b bd 16 77 05 bc 24 3e b5 bd 05 ac 9a ba
       -0.0536827 -0.008146068 -0.08849743 -0.0011800533
0001d0 f4 86 d9 bc 7c ff a4 3c 5d 03 e6 bd 55 cb 3a 3d
       -0.026553608 0.020141356 -0.1123111 0.04560407
0001e0 b9 a7 42 3b d6 e6 2b be 4f 75 c5 bd a8 b0 3b bd
       0.0029702021 -0.16787276 -0.096415155 -0.04582277
0001f0 eb 97 9d bc 44 f7 59 3d b9 d5 c0 bc 56 ce 86 bd
       -0.01923748 0.053214327 -0.02353941 -0.06582324
000200 8a 13 b5 bc 9b 27 5b 3d 91 e0 4e bd 6d b8 f3 3c
       -0.022104044 0.053504568 -0.050507132 0.029751027
000210 3a 34 d5 bc 5b 9f 35 3d e9 4d 45 3d 9a 21 b5 bd
       -0.02602588 0.044341426 0.048170004 -0.088442996
000220 3c 5e 48 3c 1a b2 87 3c 9d 14 36 be ed 8a 1c bd
       0.0122294985 0.016564418 -0.17781301 -0.038218427
000230 a1 c7 87 bd 57 af 48 bd 69 0a 3d 3d 1c 01 f9 bd
       -0.06629873 -0.048995342 0.046152506 -0.12158415
000240 ec dd 5d bd a7 74 40 3d 9b 92 fb bd b9 3c ba bd
       -0.05416672 0.04698625 -0.12283822 -0.09093613
000250 71 28 0a be 05 46 93 bc 81 13 3c bc bb 96 08 be
       -0.1349199 -0.017977724 -0.0114792595 -0.13338749
000260 1f c3 59 bd 77 42 9d bd 03 e2 a9 3b fc 82 5c bb
       -0.053164598 -0.07678693 0.0051844134 -0.0033647409
000270 57 69 59 bd af 43 05 3c 6b 7d 3b bd c6 a4 2f bd
       -0.053078976 0.008133813 -0.045773905 -0.04288175
000280 97 ba 30 bd 5c 64 bb bd 69 b2 a8 bb d1 8a c9 bb
       -0.043146696 -0.091500014 -0.0051482213 -0.0061505814
000290 ec 7d 64 3d fb 6f a1 bd fb 51 a0 bd 7e 96 10 bc
       0.05578415 -0.07882687 -0.078281365 -0.008824943
0002a0 27 2e 3d bc ca a7 7a bc bd c2 03 be cb f1 bf bd
       -0.011546648 -0.015298793 -0.12867256 -0.0937229
0002b0 cb 6a ce bd 40 3c ba bd a2 f1 15 bd 09 be d4 bd
       -0.10078963 -0.09093523 -0.036607392 -0.10387809
0002c0 e7 a5 35 bd d1 c1 59 3c 57 6e 19 3c 87 f3 c2 3d
       -0.04434767 0.013290838 0.009364686 0.095191054
0002d0 c5 50 b5 bb ca 17 18 be 02 90 d8 3d 10 30 a7 ba
       -0.00553331 -0.14852825 0.10574342 -0.0012755413
0002e0 c6 79 91 bc 60 28 4e bd 38 f7 d3 bc e9 ac c6 bd
       -0.017758261 -0.050331473 -0.025874719 -0.09700949
0002f0 0f ad 07 bd ba f7 cc 3c 28 be 1b be c9 73 16 be
       -0.033124026 0.025020469 -0.15209258 -0.14692606
000300 67 7d ea bd 16 7f 88 bd 1b c7 c1 bd 45 1e 30 bd
       -0.114497 -0.06664865 -0.094618045 -0.042997617
000310 ed 65 0d be 14 14 83 bd 52 b1 96 3c f2 ef 6b bd
       -0.13808413 -0.06400314 0.0183951 -0.057601877
000320 67 05 48 3c d9 ff 13 bd c0 34 63 bc 15 2b 02 3c
       0.012208319 -0.036132667 -0.013867557 0.007944842
000330 2e 0f c9 3c 0a e6 45 3d 79 6e a8 bd 3d 94 94 3c
       0.024543371 0.048315085 -0.08224196 0.018137092
000340 db aa 32 bd 01 8e ef 3c 4c 9a 25 bd d3 47 09 3d
       -0.04361997 0.029242517 -0.040430352 0.033515763
000350 18 36 64 3d c9 04 be bc 7f 96 73 3d 2e 93 bc bd
       0.05571565 -0.023195641 0.059469696 -0.0920776
000360 21 ff 42 bd 7f 61 2f 3d 3e c3 05 be d7 bb c4 bd
       -0.04760659 0.04281759 -0.1306276 -0.0960614
000370 9c 7e d8 bc b7 b3 01 bd 3c e8 24 3c a5 fe c0 3c
       -0.02642756 -0.03166553 0.010065135 0.023558924
000380 03 22 9f bd fa 1c 3c bd d9 bb ea bd cc 37 a8 3c
       -0.07770159 -0.04592607 -0.1146161 0.020534419
000390 fc 79 86 bd 34 5e 1b be 76 2f a1 bd 37 f2 32 bd
       -0.065662354 -0.15172654 -0.078703806 -0.043688025
0003a0 de 7a 96 bd a8 27 45 bd 86 50 8d bd 34 86 33 bd
       -0.07347654 -0.048133522 -0.06900124 -0.043829158
0003b0 bf b6 a7 bc 5b 0b ba bc 4e 63 23 3a 3b 80 df bc
       -0.020472882 -0.022710493 0.0006232754 -0.027282825
0003c0 e8 e0 61 bd da 66 3c bd ae 14 c6 3c 6c 08 59 be
       -0.055146128 -0.045996524 0.024179783 -0.21194619
0003d0 a0 99 ca bc e3 25 07 3d 2c 2c c1 3d a7 7f 9f bd
       -0.024731457 0.032995116 0.09432253 -0.077880196
0003e0 fe 10 f9 3c 13 d3 f6 bd 78 a9 4a 3b 3e 39 c9 bd
       0.03040361 -0.12051978 0.0030923765 -0.09825371
0003f0 7e a2 44 bd ac c9 10 bd 52 17 17 bd c6 a6 c4 bd
       -0.048006527 -0.03534858 -0.036887474 -0.09602122

fc2.bias f4 [128]
000000 c6 c3 08 bc cc 51 84 be e1 d2 8f be 3d 62 eb bd
       -0.008347457 -0.25843656 -0.28090575 -0.11493347
000010 3e 73 57 3d 32 cd 72 bd 4e e7 ca bd dd 0d 1c bf
       0.052600138 -0.05927772 -0.09907399 -0.60958654
000020 13 f9 bb bd f5 26 0e bf 87 9a 1d bc 53 46 b7 bd
       -0.091783665 -0.55528194 -0.009619362 -0.0894896
000030 d2 cd cf 3d 52 ae e7 bd c7 90 27 be b3 71 3b be
       0.10146679 -0.11312546 -0.16363822 -0.18305092
000040 06 be 4d 3e 4d 04 b2 bd ca 55 c9 be ca f0 5b be
       0.2009202 -0.086922266 -0.39323264 -0.21478572
000050 77 10 e2 be cc 9e 34 bf 8f a0 54 be 35 5d fa bc
       -0.44153187 -0.70554805 -0.20764373 -0.030562023
000060 ed a9 6e be f6 0b b5 be 28 73 d6 be a5 b3 9a be
       -0.23307009 -0.35360688 -0.41884732 -0.30215183
000070 56 11 9a be 88 1c 0c be 93 a8 a6 be 2d 23 39 bf
       -0.3009135 -0.13682759 -0.32550487 -0.723193
000080 53 17 0a bf 1d 0a 16 be 24 27 17 be 30 06 c1 bd
       -0.5394184 -0.14652295 -0.14761025 -0.09425008
000090 7e 75 e4 3d 0d 1c f0 bc 8c 05 7b be fd f4 d9 bd
       0.11155222 -0.02931025 -0.24513835 -0.10642431
0000a0 b1 2d 54 bd 9b 05 04 be d0 63 8c bd bc e1 bc bd
       -0.051801387 -0.12892763 -0.06854975 -0.09222743
0000b0 27 c1 ba bc 04 35 0b be ec da 76 bb 6e 50 a9 3b
       -0.02279718 -0.13594443 -0.0037667109 0.0051670587
0000c0 a3 96 05 3e 81 67 db be 0a 91 26 be 6a 35 fb bd
       0.13045745 -0.42852405 -0.16266266 -0.12266047
0000d0 de 16 cd bd 3c a4 d5 be 58 7c 25 3b 4a fa 98 bd
       -0.10014127 -0.41726863 0.0025251117 -0.07469614
0000e0 46 81 68 be b0 a2 2c bf d3 2a bb bd e4 2c 2a be
       -0.22705564 -0.6743574 -0.091390274 -0.16618687
0000f0 a5 be 22 be 24 ff c6 be a2 89 12 be 56 4f 00 be
       -0.15893038 -0.38866532 -0.14310315 -0.12530264
000100 50 8a b1 bc 7c 96 53 3d 3b 9d 0e 3e db 88 e6 bc
       -0.021672398 0.051657185 0.13927166 -0.02814143
000110 b2 05 af 3d 98 a5 3e 3d ff 4a 3b be 81 5c 89 be
       0.08546008 0.04654464 -0.18290327 -0.26828387
000120 5b 38 55 3d 7b b4 f0 bd 32 15 88 bd a8 b7 82 3e
       0.052055698 -0.11753174 -0.06644668 0.25530744
000130 14 84 ee bd db cf 9e be 8a 4a 9e bd 86 f7 44 bf
       -0.11646286 -0.31017956 -0.07729061 -0.7694019
000140 9e cf df be fd 71 5f bd 4f ed 34 be 2c e1 f8 be
       -0.43713087 -0.054552067 -0.17668651 -0.48609293
000150 34 48 3c bf 3f 12 0c be f2 7f d3 be 0c 0b 57 be
       -0.73547673 -0.13678835 -0.41308552 -0.21000308
000160 41 6c 72 bc 74 70 03 be 37 78 04 3e d1 dc f5 bd
       -0.014796318 -0.12835866 0.12936483 -0.12005008
000170 3b 6b 00 3f 2b 6a a8 bd e5 49 81 be 55 8a af be
       0.5016362 -0.08223375 -0.2525169 -0.34285226
000180 dc 2f f1 be 9a 8f a9 bd 77 3b db bd c4 4d 17 bf
       -0.47106826 -0.08279343 -0.107047014 -0.59103036
000190 1f 40 79 be c6 c2 46 bc f8 c6 ed ba 5e a8 23 bf
       -0.24340867 -0.012131399 -0.0018140962 -0.6392878
0001a0 3c a0 19 3d e3 07 d3 bd b5 00 e5 bd fb d1 09 bf
       0.037506327 -0.10304239 -0.111817755 -0.5383603
0001b0 ca 5c 14 be 0d d4 43 bf 91 68 be bd 24 07 1b bf
       -0.14488521 -0.7649544 -0.09297288 -0.6055777
0001c0 b8 b7 47 be 1d 2b 34 bd cf 19 09 3f fe 61 03 3d
       -0.19503677 -0.04398643 0.53555006 0.032075875
0001d0 7d 67 50 bf 59 70 b5 be 41 0b b1 be 72 6d f5 3d
       -0.8140791 -0.35437277 -0.345789 0.11983766
0001e0 31 e2 92 bd 5e 83 f6 3c a6 17 e6 bb 69 01 45 be
       -0.07172049 0.030091938 -0.007021862 -0.19238819
0001f0 80 5d b4 bd ae e2 a2 be 9c 83 01 bd 6c fb ed 3d
       -0.08806896 -0.31813568 -0.031619653 0.116202205

fc3.weight f4 [2, 128]
000000 c5 7d 06 3c 50 61 c1 3e 45 4f ed 3e 49 1d 4b bd
       0.008208697 0.37769556 0.4634954 -0.049588475
000010 ab 22 49 bd bc db 20 3c 26 26 ce bd 0f f1 d5 bd
       -0.049105328 0.009818014 -0.1006587 -0.10446369
000020 0f 88 b9 bb 8f 1c 1c 3d f6 0c 7c 3d a0 4a 50 3c
       -0.0056619714 0.038113173 0.061535798 0.0127131045
000030 f1 cc 2c be 0f b9 ae 3c 3c 19 02 bb d0 42 c0 3d
       -0.16875054 0.021328477 -0.0019851467 0.093877435
000040 97 a1 ef 3e d8 99 64 3c 7a 81 47 bd 97 2c 9a 3d
       0.4680297 0.013952695 -0.048707463 0.07528036
000050 24 57 67 be 8f 35 14 be aa 5b ee bd 42 44 e5 bb
       -0.22591835 -0.14473556 -0.11638577 -0.0069966624
000060 61 14 45 be e5 a7 03 3e ba 7b 0d 3e 52 a7 12 3e
       -0.19246055 0.12857015 0.13816729 0.1432164
000070 27 09 1b 3d fe 9f 8f bb 6c 19 8e 3e 76 f7 2b be
       0.037850525 -0.004383086 0.2775377 -0.16793618
000080 69 e2 6c bd 2e 03 2f 3c 5e 4c 55 3b eb 65 34 3c
       -0.05783311 0.01068191 0.003254674 0.011010627
000090 68 f5 75 bc 42 8a 5e 3c f0 39 3c 3e fc 13 b3 3a
       -0.015012123 0.013582768 0.18381476 0.0013662572
0000a0 86 5d e3 3b 27 af e8 3e ed c4 22 3c ac d1 e3 be
       0.006938639 0.4544613 0.009934646 -0.44495904
0000b0 2b cc cb 3b 11 d9 93 bc 09 97 92 bd 02 0c 75 bc
       0.006219407 -0.018047841 -0.07157714 -0.014956476
0000c0 d9 3b 59 3e 77 02 14 be ae 54 20 3e 65 0c dc 3a
       0.21214236 -0.14454065 0.15657303 0.0016788362
0000d0 e5 f4 29 bd b6 34 6d 3d 2c 65 84 3c c4 a2 e1 bd
       -0.041493315 0.057911597 0.016161524 -0.11017373
0000e0 0a 29 e8 3d df 7b 54 bf 14 f3 2c 3e 02 d6 02 be
       0.113359526 -0.8300151 0.16889602 -0.1277695
0000f0 d7 f3 88 be cd 0a da 3d c4 88 80 bc ae 66 f5 3d
       -0.26748535 0.10646591 -0.015690215 0.11982475
000100 3d b6 c7 3d b9 e5 d5 3e fe 54 7d 3c 9a c9 1d 3e
       0.09751556 0.41776827 0.015462158 0.15408936
000110 5e a7 cf bd b3 76 ab 3d 25 9b 68 3f 25 66 d9 ba
       -0.10139345 0.083722495 0.9086173 -0.0016586228
000120 3a 0e 8d bc 8a 3d 10 3d bf 24 93 bb f4 c9 dc bd
       -0.017218698 0.03521494 -0.0044904645 -0.10780707
000130 50 28 42 bc 6b 0c a6 3d eb 5d 06 3c 0f 0f 0f be
       -0.011850432 0.08107837 0.008201103 -0.13970588
000140 b2 04 a1 be ac 20 dd bf e5 41 37 3e 5a 6e fa 3d
       -0.31448895 -1.7275596 0.1789623 0.12228079
000150 af 7a 5b be dc fe 45 3c 96 51 19 3b 2e a1 d7 3d
       -0.21433519 0.012084689 0.0023394576 0.105287895
000160 8c 33 22 bc 4a d6 79 bc db 22 03 3c 34 ca ce 3e
       -0.009899985 -0.015248844 0.008003916 0.40388644
000170 33 fd 13 3e 8b 5e 89 bd bf ff e2 bd 6b 0a 8c bd
       0.14452057 -0.06707486 -0.11083936 -0.068379246
000180 b2 10 d3 bb 7e 99 3c 3c 66 5d c3 3d b4 fa 11 3e
       -0.006441199 0.011511205 0.09539299 0.14255792
000190 83 af 0c be de 18 c7 3e b9 bf 0c 3d 70 06 2b 3e
       -0.13738827 0.3888616 0.03436253 0.16701674
0001a0 26 20 ec 3d 72 69 71 bc 9b fc 2b 3c 81 2d cc bf
       0.11529569 -0.014734613 0.010497238 -1.5951387
0001b0 b1 af c0 3c 66 b7 92 bc a3 9a 0f 3e 9a 7e 69 3e
       0.023521276 -0.017909717 0.14023833 0.22802201
0001c0 ce 36 d5 bc c4 6b fe bb c6 c3 b1 3d 40 5b fd bd
       -0.02602711 -0.0077643115 0.08679919 -0.1237092
0001d0 08 d0 cb bd 9a 1a cb be 5e 7d 4d 3b b5 61 74 3d
       -0.09951788 -0.39668733 0.0031355242 0.059663493
0001e0 a2 ad b8 bd e7 05 2d bd 59 82 e3 be e2 9e 2b 3e
       -0.09017493 -0.042241957 -0.44435385 0.16759828
0001f0 1b 33 ad 3b 11 5f 0c 3c 32 52 a3 bc e2 7b b2 bd
       0.0052856333 0.0085675875 -0.019936655 -0.08715035
000200 f7 c7 d5 3c 95 c1 b7 bf 47 43 9a bd 79 29 92 be
       0.026096327 -1.4355952 -0.075323634 -0.28547266
000210 42 0e 7c bf bf df ae bc e3 35 84 3e cf 44 fe be
       -0.98459256 -0.021346925 0.25822362 -0.49661872
000220 54 9a 0f 3d 89 cc 7e be 80 e1 c4 bb e2 35 8c bd
       0.03505929 -0.24882711 -0.006008327 -0.06846215
000230 e8 7b 98 c0 c0 72 83 3e dd 07 c0 3c 56 17 6c be
       -4.7651253 0.25673485 0.02344125 -0.23055777
000240 3d cc bb bc 63 1b 0e bc 51 3b 88 be ae 64 92 be
       -0.022924537 -0.008673522 -0.26607755 -0.28592438
000250 88 ca 28 3d 34 a0 9e be e9 60 df be ef 23 12 3c
       0.041208774 -0.309816 -0.43628624 0.0089197
000260 f7 d5 e0 bd 3b 1c 92 be 51 b0 16 be 00 18 bf bd
       -0.109783106 -0.28537163 -0.14715697 -0.093307495
000270 f2 3d 23 3f 42 e7 ae bd 09 44 41 ba de a1 7c 3e
       0.63766396 -0.08540203 -0.0007372504 0.24671122
000280 f2 d5 60 3e 33 80 27 3d d2 c1 14 3d 3a f5 03 3d
       0.21956614 0.040893745 0.036317654 0.03221629
000290 f0 07 40 3f 38 c2 13 bf a6 c0 19 3e 40 dd 75 3b
       0.7501211 -0.5771823 0.15014896 0.0037515908
0002a0 60 d2 80 3c 5d 57 a6 be 24 8c 82 bd d4 ab 71 3e
       0.015725315 -0.32488528 -0.06374386 0.23600703
0002b0 93 85 22 bc 77 ba a3 3d 57 4b 3e 3e 10 fb a0 bc
       -0.009919542 0.0799455 0.18583427 -0.019650966
0002c0 af a8 20 bf d4 e2 ed bd fb 81 dd 3e d2 af a2 bc
       -0.6275739 -0.1161553 0.4326323 -0.019859228
0002d0 b3 98 ab 3c a1 76 1d 3e ca 9c 91 bf 9e b0 08 3e
       0.020946836 0.15377285 -1.1375973 0.13348624
0002e0 1a 4f 6d 3e 37 82 b9 bc 28 9c a1 3e ac fb 81 bd
       0.23174706 -0.0226451 0.3156445 -0.06346831
0002f0 d6 2a 97 3e 10 03 87 3e 24 3a 0d bd 2e 1a a8 3d
       0.2952487 0.26369524 -0.034479275 0.082081184
000300 fa d1 87 bb 30 0e c9 be 13 07 2a bf 73 1e 99 be
       -0.004144904 -0.39268637 -0.66417044 -0.29906043
000310 b7 39 0e 3e 23 c7 0c bb b5 e7 ee bf 30 41 c0 bf
       0.13889204 -0.0021481 -1.8664461 -1.5019894
000320 c9 b8 c0 3e 51 c5 91 be 14 69 fe 3a dc c8 6a 3f
       0.3764098 -0.28470853 0.0019409978 0.9171274
000330 66 5a af 3c bc 58 4a bd ac df fb bb 2e f4 68 3e
       0.02140541 -0.04940103 -0.007686576 0.22749397
000340 cf 8b 7f be d9 55 46 bf 7f c4 00 bd f8 3f 62 bd
       -0.24955676 -0.77474743 -0.031437393 -0.055236787
000350 c5 83 53 3e 85 01 70 3c 63 ba b2 3e 03 62 bf bf
       0.20655735 0.0146488 0.34907827 -1.4951786
000360 01 83 c4 bb 77 93 44 bc 74 36 23 bf e7 e6 5c bf
       -0.005997062 -0.011998049 -0.63754964 -0.8628983
000370 c4 f8 0f 3e 1f f5 d3 bd ba 57 31 bd 96 3d 46 3e
       0.1405974 -0.103494875 -0.043296553 0.1935943
000380 17 24 95 3e 37 04 7e bc 15 d7 a3 bf be 37 05 3f
       0.29129097 -0.015503935 -1.2800013 0.5203818
000390 28 f7 d6 bb 87 0e 78 3e 8f c8 86 3e 36 eb 1f be
       -0.006560225 0.24224292 0.2632489 -0.1561707
0003a0 68 78 cc 3c 22 11 74 3c 58 4d 0c ba 29 7a 21 bf
       0.024959758 0.014896663 -0.0005352101 -0.63077027
0003b0 8c fc 1b 3b e7 62 e1 3e 61 1a e1 3d f4 33 ec be
       0.0023801653 0.4402077 0.109913595 -0.46133387
0003c0 1f 60 92 bd 7b a1 0b 3c c3 27 38 3e 9b d2 f0 be
       -0.0714724 0.008522387 0.17983918 -0.4703568
0003d0 94 77 b7 be 1f b8 a7 be 4b ae 41 bf 61 e4 fa 3a
       -0.35833418 -0.3275766 -0.75656575 0.0019141549
0003e0 c3 c6 c9 bc 79 c8 ee 3c 65 6b 2d bd 98 cd 35 3f
       -0.02463091 0.029148327 -0.042338748 0.71016836
0003f0 23 e4 a4 3c e7 e6 16 3f 79 d9 d1 bc 70 57 22 bd
       0.020128315 0.5894608 -0.025616394 -0.03963417

fc3.bias f4 [2]
000000 7f fe 23 bb c7 e2 5c bd
       -0.0025023518 -0.05392721
