checkpoint1_actor0.pth (torch_old, 159230 bytes, 6 tensors)

fc1.weight f4 [256, 24]
0.47067392 0.064573705 -0.1314374 0.38361803 -0.47151175 -2.0878308 -0.12689275 0.46062782
0.41899547 0.08591667 -0.024149831 -0.01343594 -0.3460282 -1.2641908 0.037905447 0.039761953
0.39704585 0.13383487 -0.050167896 0.3575707 -0.31721812 -1.0765694 0.015235778 0.312402
0.26126394 0.17275614 -0.22198854 -0.13854139 0.37336063 0.07405556 -0.21347077 -0.231295
0.35441592 0.1728501 0.078824624 -0.03635818 0.3446397 -0.021118747 0.031405415 -0.026295843
0.41574854 0.17367186 -0.060398217 -0.029352497 0.55821496 0.0006612152 -0.015184474 -0.067668706
0.34752345 0.67212373 0.23717229 -0.19975293 -0.15008609 0.0068063852 0.15440822 -0.25371256
0.49216127 0.8034959 -0.23817801 -0.15186222 -0.13581818 0.22310573 -0.21899411 -0.1320268
0.5794591 0.7868894 -0.074168526 -0.38923573 -0.19581415 0.67840135 -0.027789421 -0.31411076
0.41566345 0.89451504 -0.15502556 0.42308384 -0.7205011 -0.45601308 -0.13120465 0.41612333
0.3823289 0.8167589 0.039251406 0.122103065 -0.36788765 0.07637232 0.07769969 0.19395049
0.34411845 0.6642995 -0.26171067 -0.5278922 0.10474988 0.5616662 -0.16523115 -0.49833438
0.13826497 0.43904147 -0.16444974 0.0038546484 0.28459918 -0.31956327 -0.27019197 -0.06838048
0.18714641 0.41754073 0.2369065 -0.4993988 0.024916928 0.09444385 0.25888872 -0.43208152
0.23324277 0.50834984 -0.08386814 0.35435432 -0.2203658 0.448223 -0.04522438 0.42260873
0.028505486 -0.0017522833 -0.17172346 -0.22361736 -0.58653325 -0.08396347 -0.093509614 -0.20538841
0.0029526164 0.039742246 -0.24992557 -0.29093257 -0.10195203 -0.108285315 -0.18233125 -0.2649578
0.109848075 -0.029373616 0.14276044 -0.6466764 0.407939 -0.10390989 0.15100245 -0.6728722
0.13885911 0.08994161 0.020067785 -0.24985045 0.021852657 0.1813031 0.04751572 -0.16031152
0.19178107 0.05914318 -0.21207586 -0.29870304 -0.321855 0.09801467 -0.23331964 -0.2904671
0.19982286 0.09866351 -0.11477429 0.23937666 -0.53229004 -0.3046456 -0.11682794 0.27014259
-0.028091883 -0.5028344 -0.08898171 -0.043058194 0.2293104 -0.37601638 -0.061070856 -0.08887147
0.03684116 -0.42244118 0.008556089 -0.090970375 -0.20778687 -0.22775133 0.021967446 -0.0834632
0.109316185 -0.4344668 0.09758835 -0.025557104 -0.42411348 -0.05642191 0.17413779 -0.04504541
0.3683425 0.5638378 -0.10393687 -0.513487 -0.49342433 -0.34062353 -0.101482786 -0.5388491
0.5681355 0.63257813 0.16371061 0.4207392 -0.42828476 -0.37382603 0.18392412 0.4454812
0.66848326 0.71346 0.16800658 0.27321625 -0.36179933 -0.46772942 0.090324394 0.20694484
0.06489647 0.7418411 -0.023134526 0.34651175 0.28658393 0.4216955 -0.031309564 0.36410168
0.012448366 0.78823745 0.00348446 0.14893639 -0.3296649 -0.22702247 -0.04178436 0.07863795
0.13649526 0.90082794 -0.015503319 0.16976786 -0.96336645 -1.2103537 0.08145003 0.14364797
0.123738624 1.0217161 0.0026168078 0.5392524 0.16227415 0.013478053 -0.039761376 0.59502333
0.18747896 1.1751736 0.062577136 0.24854667 0.27311993 0.028480938 0.021213194 0.27003053
00000000: 2cfc f03e 383f 843d 8797 06be 9569 c43e
00000010: fd69 f1be 059f 05c0 2cf0 01be 69d7 eb3e
00000020: 9386 d63e 14f5 af3d ded5 c5bc 6b22 5cbc
00000030: 9c2a b1be 01d1 a1bf be42 1b3d 6edd 223d
00000040: 9849 cb3e 020c 093e da7c 4dbd 8213 b73e
00000050: 6a6a a2be 07cd 89bf 7c9f 793c 28f3 9f3e
00000060: 63c4 853e fce6 303e f750 63be cbdd 0dbe
00000070: 2029 bf3e 71aa 973d 1598 5abe 99d8 6cbe
00000080: 0176 b53e 9eff 303e ce6e a13d 51ec 14bd
00000090: 9d74 b03e 3901 adbc f7a2 003d 616a d7bc
000000a0: fedc d43e 09d7 313e 1f64 77bd a674 f0bc
000000b0: 2de7 0e3f 6755 2d3a 4dc8 78bc e495 8abd
000000c0: 98ee b13e 4d10 2c3f 4bdd 723e 088c 4cbe
000000d0: 2bb0 19be 1908 df3b 301d 1e3e 9de6 81be
000000e0: 90fc fb3e e8b1 4d3f f0e4 73be c581 1bbe
000000f0: ec13 0bbe d475 643e fe3f 60be 0932 07be
00000100: 6e57 143f 9571 493f abe5 97bd e849 c7be
00000110: 8183 48be b6ab 2d3f a4a6 e3bc 20d3 a0be
00000120: d7d1 d43e f0fe 643f 05bf 1ebe 729e d83e
00000130: c372 38bf 8c7a e9be 835a 06be 1e0e d53e
00000140: 9dc0 c33e 1c17 513f 15c6 203d 2c11 fa3d
00000150: c55b bcbe 1769 9c3d 0421 9f3d f59a 463e
00000160: 4b30 b03e 880f 2a3f f1fe 85be f123 07bf
00000170: 1b87 d63d 5bc9 0f3f 5b32 29be af25 ffbe
00000180: 5595 0d3e 0bca e03e 8365 28be 459e 7c3b
00000190: fcb6 913e cc9d a3be 9a56 8abe 110b 8cbd
000001a0: 4fa3 3f3e e6c7 d53e 9e97 723e 33b1 ffbe
000001b0: 961e cc3c c76b c13d 108d 843e ca39 ddbe
000001c0: 31d7 6e3e 3723 023f 0fc3 abbd ee6d b53e
000001d0: 93a7 61be 7c7d e53e 333d 39bd 2c60 d83e
000001e0: 5684 e93c dfac e5ba 46d8 2fbe f3fb 64be
000001f0: 0b27 16bf 0af5 abbd f881 bfbd 5751 52be
00000200: af80 413b c4c8 223d 7dec 7fbe 1df5 94be
00000210: 3acc d0bd b1c4 ddbd 0bb5 3abe 8ca8 87be
00000220: 07f8 e03d f0a0 f0bc cb2f 123e 968c 25bf
00000230: 61dd d03e b5ce d4bd 63a0 1a3e 5a41 2cbf
00000240: 1531 0e3e 4f33 b83d 3265 a43c ccd8 7fbe
00000250: 5804 b33c 85a7 393e d89f 423d b428 24be
00000260: 4262 443e 1e40 723d 6a2a 59be 9bef 98be
00000270: 2eca a4be eabb c83d 58eb 6ebe 1bb8 94be
00000280: 5d9e 4c3e 1810 ca3d c80e ebbd 281f 753e
00000290: 2944 08bf 82fa 9bbe 7d43 efbd 2150 8a3e
000002a0: f320 e6bc c1b9 00bf 0b3c b6bd ca5d 30bd
000002b0: 58d0 6a3e 3885 c0be 6f25 7abd 3f02 b6bd
000002c0: c2e6 163d 364a d8be d72e 0c3c ad4e babd
000002d0: 15c6 54be a537 69be 13f5 b33c c1ee aabd
000002e0: 2ae1 df3d 6f72 debe 67dc c73d 225d d1bc
000002f0: 6725 d9be a91a 67bd 2d51 323e 8981 38bd
00000300: 6397 bc3e ad57 103f dbdc d4bd e273 03bf
00000310: 1da2 fcbe 3566 aebe 35d6 cfbd 04f2 09bf
00000320: 5471 113f a4f0 213f c1a3 273e 216b d73e
00000330: 2448 dbbe 2066 bfbe 9b56 3c3e 1d16 e43e
00000340: b821 2b3f 51a5 363f eb09 2c3e 00e3 8b3e
00000350: c33d b9be 3b7a efbe fffb b83d 59e9 533e
00000360: 71e8 843d 4ce9 3d3f 9e84 bdbc fd69 b13e
00000370: 21bb 923e 79e8 d73e 753e 00bd 896b ba3e
00000380: 3bf4 4b3c eec9 493f 8a5b 643b c882 183e
00000390: d6c9 a8be 9478 68be 1426 2bbd ef0c a13d
000003a0: 6ac5 0b3e a99c 663f a201 7ebc a0d7 2d3e
000003b0: 2f9f 76bf dfec 9abf 46cf a63d 7418 133e
000003c0: ad6a fd3d 98c7 823f c07e 2b3b 720c 0a3f
000003d0: 322b 263e 0dd3 5c3c d3dc 22bd 7353 183f
000003e0: 7cfa 3f3e 176c 963f 7128 803d 0583 7e3e
000003f0: 60d6 8b3e db50 e93c 4bc7 ad3c 7141 8a3e

fc1.bias f4 [256]
-0.4538327 -0.24224295 -0.7388124 -0.31551567 -0.35239553 -0.13955374 -0.7368319 -0.072066054
-0.5829438 -0.425475 -0.27581704 0.116786025 -0.06555557 -0.6118333 -0.33047932 0.17445415
-0.043933287 -0.086274706 -0.39378795 -0.51138216 -0.3270092 -0.49207747 0.30078095 -0.25165308
0.1766051 -0.33096898 -0.14558724 -0.22967313 -0.08158462 0.34839928 -0.24988748 -0.14790295
-0.464568 -0.36625427 -0.39997068 -0.12845638 -0.41765162 0.2686658 -0.2407202 -0.45487574
-0.6103651 -0.7722177 -0.29844373 -0.2867081 -0.18006073 -0.669824 -0.5813481 -0.35328776
-0.2716715 0.19032775 -0.19192281 -0.11362701 -0.75219595 -0.48523045 0.34867555 -0.17327486
0.15304385 -0.37485468 -0.6102293 -0.15015396 -0.23381878 -0.27831593 -0.56833553 -0.61580646
-0.36438563 -0.5069434 -0.37190235 -0.1003698 -0.5914414 -0.4398349 -0.55269885 -0.3925096
-0.47839096 -0.19327553 -0.67867106 -0.3675226 -0.021273179 0.1728539 -0.1466761 -0.5314547
-0.62549144 -0.22744185 -0.35022306 -0.3580014 -0.4228684 0.0257101 -0.5438536 -0.19269587
-0.6842136 -0.4880005 -0.6629964 -0.089172244 -0.19276543 -0.10441034 -0.48100924 -0.6910662
-0.22210988 -0.24430762 0.4191208 -0.17486785 -0.38331878 -0.47575253 -0.39340007 -0.28464127
-0.1900569 0.06580001 -0.3258598 -0.5434949 -0.09281122 -0.16655278 -0.72825724 -0.55101365
0.23280598 -0.3897 -0.36501536 0.31598744 -0.017686695 -0.42021877 -0.09214003 -0.18371263
-0.5046131 -0.3517135 0.24570194 0.120955184 -0.34312695 -0.2854804 -0.47156847 -0.5061567
-0.3371072 -0.50748485 -0.5294399 -0.03094628 -0.64686936 0.07354946 0.07289126 -0.33459902
0.013381149 0.0208862 -0.04289525 -0.16888511 0.012847886 -0.28688303 0.034786064 0.21193063
0.11089122 -0.018205179 -0.22103827 -0.43078768 -0.35980773 0.11934824 0.14346373 -0.2482464
0.20270753 -0.5382811 0.08548548 0.03738546 -0.02143222 0.0074840155 0.056420147 0.12830575
-0.55742645 0.25390124 -0.51399714 -0.35306332 -0.44286793 0.3572061 -0.21281885 -0.2789827
0.047094453 -0.30548066 -0.5325679 -0.54182625 -0.6448293 -0.28550708 0.01655721 -0.40680942
-0.41274926 -0.044091836 -0.60366696 -0.43662336 -0.8517646 0.03478825 0.27511314 -0.49347255
-0.101916656 -0.44331232 -0.3961541 -0.15000641 0.13481218 0.06063962 -0.10572549 -0.4469393
-0.07057088 -0.45015293 0.13093248 -0.8400363 -0.2444472 -0.19890688 -0.02731735 0.14984496
-0.1667933 -0.27754962 -0.35972688 -0.19364616 0.04378255 -0.13008684 -0.49665156 -0.24139586
-0.22054121 -0.6033764 -0.2405396 -0.29065362 0.077709526 -0.5191083 0.12318179 -0.52337086
-0.1004481 0.49684313 -0.5155215 -0.32411215 -0.21757144 0.27980876 -0.40591723 -0.085674256
-0.54049367 -0.43073145 -0.37114787 -0.6064636 -0.5035993 -0.41768345 0.03401433 0.22849803
-0.6359062 -0.00033430592 -0.49365494 -0.39535108 -0.31496888 -0.32586625 -0.3790232 -0.052832074
-0.7419271 -0.58088106 -0.2698272 0.26485634 -0.26277807 -0.22435156 -0.475995 -0.16979349
-0.32391953 -0.092298895 -0.32712948 -0.009004029 0.4522297 0.7032637 -0.6722321 0.098866045
00000000: c25c e8be 890e 78be cf22 3dbf 458b a1be
00000010: 306d b4be 2de7 0ebe 04a1 3cbf 5e97 93bd
00000020: ce3b 15bf dcd7 d9be e437 8dbe 832d ef3d
00000030: 0042 86bd 1ba1 1cbf 9634 a9be 1ca4 323e
00000040: 64f3 33bd cbb0 b0bd 939e c9be f1e9 02bf
00000050: c06d a7be 94f1 fbbe f6ff 993e acd8 80be
00000060: f8d7 343e c474 a9be d214 15be 6f2f 6bbe
00000070: d615 a7bd 6461 b23e 81e2 7fbe df73 17be
00000080: dbdb edbe ae85 bbbe f5c8 ccbe 128a 03be
00000090: 6fd6 d5be 908e 893e 5b7f 76be 79e5 e8be
000000a0: e340 1cbf 0fb0 45bf 9ecd 98be 67cb 92be
000000b0: d761 38be 9679 2bbf 3bd3 14bf 22e2 b4be
000000c0: 8718 8bbe 47e5 423e 6a87 44be 47b5 e8bd
000000d0: ea8f 40bf 2070 f8be 9a85 b23e f76e 31be
000000e0: 87b7 1c3e f4ec bfbe fd37 1cbf f6c1 19be
000000f0: 316e 6fbe 6d7f 8ebe 707e 11bf 7ea5 1dbf
00000100: c190 babe 0bc7 01bf fc69 bebe af8e cdbd
00000110: b468 17bf 0a32 e1be ac7d 0dbf 05f7 c8be
00000120: a9ef f4be 05ea 45be 63bd 2dbf ec2b bcbe
00000130: 1745 aebc 9d00 313e 4232 16be 6a0d 08bf
00000140: 3520 20bf 84e6 68be 7050 b3be f64b b7be
00000150: 3582 d8be fd9d d23c fd39 0bbf 1152 45be
00000160: 9f28 2fbf 34db f9be 22ba 29bf f09f b6bd
00000170: 4d64 45be 17d5 d5bd d846 f6be b7e9 30bf
00000180: c670 63be c72b 7abe 0097 d63e 8f10 33be
00000190: 5c42 c4be d695 f3be bc6b c9be 80bc 91be
000001a0: 479e 42be 28c2 863d 19d7 a6be 7b22 0bbf
000001b0: cf13 bebd d08c 2abe 116f 3abf 3b0f 0dbf
000001c0: b164 6e3e c286 c7be 4be3 babe 1bc9 a13e
000001d0: b0e3 90bc ea26 d7be e9b3 bcbd 2a1f 3cbe
000001e0: 532e 01bf cb13 b4be 4a99 7b3e 5ab7 f73d
000001f0: 56ae afbe 7d2a 92be 6c71 f1be 7c93 01bf
00000200: 5199 acbe 87ea 01bf 6089 07bf 0e83 fdbc
00000210: 3b99 25bf 19a1 963d 0348 953d 9050 abbe
00000220: 9b3c 5b3c 8919 ab3c eeb2 2fbd 38f0 2cbe
00000230: f17f 523c 55e2 92be d57b 0e3d 5804 593e
00000240: f01a e33d 0723 95bc db57 62be 3490 dcbe
00000250: b838 b8be da6c f43d 28e8 123e 4e34 7ebe
00000260: 9092 4f3e cacc 09bf 0313 af3d 7f21 193d
00000270: 9f92 afbc 793c f53b d018 673d 9562 033e
00000280: 80b3 0ebf 58ff 813e 5195 03bf b7c4 b4be
00000290: 96bf e2be b8e3 b63e 2fed 59be d2d6 8ebe
000002a0: 1de6 403d f667 9cbe 5f56 08bf 20b5 0abf
000002b0: 8813 25bf fc2d 92be fca2 873c 5349 d0be
000002c0: df53 d3be a499 34bd eb89 1abf 198d dfbe
000002d0: 3f0d 5abf 207e 0e3d a1db 8c3e 6fa8 fcbe
000002e0: aeb9 d0bd d5f9 e2be b6d4 cabe 489b 19be
000002f0: 340c 0a3e 4061 783d 9b86 d8bd 3ad5 e4be
00000300: 7787 90bd 727a e6be 2a13 063e 9e0c 57bf
00000310: 5e50 7abe 3fae 4bbe a3c8 dfbc f570 193e
00000320: ddcb 2abe fc1a 8ebe 1f2e b8be 2e4b 46be
00000330: 5555 333d 7c35 05be 1d49 febe 7a30 77be
00000340: 8ed5 61be e076 1abf 0350 76be 8dd0 94be
00000350: 2c26 9f3d 48e4 04bf bc46 fc3d a2fb 05bf
00000360: bcb7 cdbd 3962 fe3e 38f9 03bf 07f2 a5be
00000370: 0ccb 5ebe 1843 8f3e 62d4 cfbe fc75 afbd
00000380: cb5d 0abf d588 dcbe 1807 bebe 3341 1bbf
00000390: e2eb 00bf 9bda d5be 9c52 0b3d 63fb 693e
000003a0: c0ca 22bf c845 afb9 57c0 fcbe 756b cabe
000003b0: 9a43 a1be f1d7 a6be 540f c2be 7266 58bd
000003c0: efee 3dbf 9fb4 14bf ca26 8abe 409b 873e
000003d0: d98a 86be 6abc 65be 9eb5 f3be 58de 2dbe
000003e0: c8d8 a5be 3407 bdbd 847d a7be a385 13bc
000003f0: a78a e73e 1709 343f 6717 2cbf 487a ca3d

fc2.weight f4 [128, 256]
-0.029675368 0.055236835 -0.46846804 -0.027701668 -0.15191503 -0.042025696 -0.3011033 -0.16608557
-0.04831827 0.018747624 -0.31309357 -0.545106 0.14095467 -0.1263487 -0.3499995 0.03452327
0.08376732 -0.12580235 -0.54460883 -0.1043748 0.3388256 -0.24301563 -0.6436311 -0.088451535
0.16696057 -0.34755978 -0.14266273 0.016455472 -0.3661262 -0.32055303 -0.06735357 -0.25040302
0.05524153 0.032342833 -0.015797514 -0.45240873 -0.35349786 -0.2987228 -0.01734164 -0.33153433
-0.01478067 -0.40793565 -0.15489243 -0.08107794 0.063724004 0.34576824 -0.008972566 -0.10918036
-0.27808487 -0.34665564 -0.15182917 0.018771129 0.004570503 -0.4950774 -0.20570351 -0.5492745
-0.113904096 -0.18778932 -0.11892692 -0.2751672 -0.05247711 -0.6466126 0.010402997 -0.02900007
-0.06803549 -0.03509434 0.09360788 -0.8005767 -0.56603825 -0.07984539 -0.20834966 -0.091235
-0.1708618 0.034473095 -0.020383738 -0.08558017 -0.1890472 -0.3150254 -0.07534793 -0.90337455
-0.2303111 -0.2079595 -0.58095616 -0.2137502 0.0692328 -0.4549628 0.056656815 0.08529994
-0.056596555 -0.027526949 0.012456741 -0.17519498 -0.15432626 -0.017395768 0.0640395 -0.085748896
-0.26885435 0.031451035 -0.054941304 -0.065263905 -0.72895724 -0.13332391 0.13294865 -0.6022862
0.1274818 -0.2585769 -0.14183757 0.08358241 -0.6447178 -0.3458816 -0.421618 -0.08531636
-0.3094813 0.034157127 -0.16346666 -0.43363252 -0.034544393 0.00028343542 -0.66616327 -0.5067417
-0.14677575 -0.10200992 -0.3938273 -0.3976766 -0.10202884 0.005414776 -0.36558333 0.023445236
-0.6593613 0.09974296 0.08870295 -0.033670448 -0.35642156 0.28924498 -0.3590302 -0.034847327
0.28099844 -0.3184641 -0.5392017 -0.026345052 -0.036751416 -0.14467011 -0.13775836 -0.48001274
-0.119170696 0.029199064 -0.25830638 0.06911512 -0.10979711 -0.006863852 0.0080365045 0.070964865
-0.41132846 0.04682838 0.12400666 -0.0768041 0.015631087 0.065052606 0.089625 0.16138208
-0.009018886 -0.50916195 -0.18740323 -0.08702683 0.08600776 -0.13588415 0.1684457 -0.38281178
-0.52424973 -0.020712852 -0.045776494 -0.15809916 -0.288308 0.25249273 0.21278271 -0.10464086
0.012090458 -0.044685487 -0.04607145 0.029188767 -0.277348 -0.105200276 -0.1996471 -0.18294139
0.021694953 -0.52090657 -0.09036259 -0.04031956 -0.035290293 -0.2519601 -0.09252031 -0.1996446
-0.41653836 -0.13241975 0.007818956 -0.1357376 -0.14342839 -0.07611062 0.0103331255 -0.43999544
0.0850034 -0.04016529 0.06555938 -0.24812396 0.47920206 -0.045717403 -0.17536685 -0.10634119
0.041290548 -0.32683557 -0.19504614 0.05924766 -0.26783854 -0.08393209 -0.13491257 -0.42545694
-0.14750461 -0.30360523 -0.18793054 -0.21200433 0.26918638 -0.11462204 -0.15251829 0.46215054
-0.20517074 -0.51540774 0.06582347 0.11018685 -0.17924874 -0.023913467 0.17239156 -0.22672069
-0.57153046 -0.10255253 -0.34957033 -0.0056506237 0.048270307 -0.1713821 -0.43592095 -0.27106354
-0.07436647 -0.1565448 -0.043317642 -0.39293534 -0.55956554 0.06622437 0.06012956 -0.020259185
-0.17415051 -0.33379441 -0.18532112 -0.2107914 -0.36228138 0.25113425 -0.19223814 -0.23316832
00000000: c219 f3bc 0540 623d 0bdb efbe 9cee e2bc
00000010: 9d8f 1bbe 2323 2cbd 362a 9abe 5612 2abe
00000020: 61e9 45bd 9e94 993c cd4d a0be 118c 0bbf
00000030: 6c56 103e 8e61 01be 2233 b3be 4668 0d3d
00000040: 338e ab3d 55d2 00be 7c6b 0bbf 75c2 d5bd
00000050: 8d7a ad3e 17d9 78be 02c5 24bf 1426 b5bd
00000060: b6f7 2a3e 5bf3 b1be 2e16 12be a0cd 863c
00000070: e574 bbbe 871f a4be abf0 89bd d334 80be
00000080: f144 623d eb79 043d ca69 81bc 1ea2 e7be
00000090: acfd b4be 32f2 98be 0e10 8ebc debe a9be
000000a0: a02a 72bc f1dc d0be 1f9c 1ebe 310c a6bd
000000b0: bb81 823d 8908 b13e ab01 13bc f499 dfbd
000000c0: 2461 8ebe d97c b1be 1b79 1bbe e9c5 993c
000000d0: 28c4 953b c97a fdbe f1a3 52be 419d 0cbf
000000e0: 8d46 e9bd d84b 40be f58f f3bd b7e2 8cbe
000000f0: 3df2 56bd 6788 25bf 5571 2a3c 8e91 edbc
00000100: 3156 8bbd 15bf 0fbd 7db5 bf3d 98f2 4cbf
00000110: e2e7 10bf fb85 a3bd 9d59 55be 6ad9 babd
00000120: 65f6 2ebe a933 0d3d ccfb a6bc a844 afbd
00000130: 9795 41be 024b a1be 0450 9abd 8e43 67bf
00000140: acd6 6bbe 56f3 54be 8bb9 14bf 55e1 5abe
00000150: edc9 8d3d e2f0 e8be fa10 683d bcb1 ae3d
00000160: cad1 67bd 3280 e1bc 5c17 4c3c 5066 33be
00000170: b407 1ebe 9281 8ebc 2427 833d 1e9d afbd
00000180: 47a7 89be cdd2 003d 220a 61bd 15a9 85bd
00000190: f19c 3abf 1086 08be b123 083e 6e2f 1abf
000001a0: 978a 023e 3164 84be de3d 11be 412d ab3d
000001b0: 3a0c 25bf 6517 b1be 51de d7be 58ba aebd
000001c0: 5574 9ebe 58e8 0b3d ce63 27be 1505 debe
000001d0: 6c7e 0dbd 0f9a 9439 ad89 2abf d3b9 01bf
000001e0: 624c 16be 94ea d0bd bba3 c9be 449c cbbe
000001f0: 7ff4 d0bd 6f6e b13b bd2d bbbe 3910 c03c
00000200: e7cb 28bf 0946 cc3d e4a9 b53d 06ea 09bd
00000210: e37c b6be eb17 943e ced2 b7be 12bc 0ebd
00000220: 07df 8f3e ba0d a3be 1f09 0abf 94d1 d7bc
00000230: a788 16bd 6724 14be 8710 0dbe 3bc4 f5be
00000240: c40f f4bd e032 ef3c bc40 84be 3a8c 8d3d
00000250: 4fdd e0bd 2aea e0bb 8bab 033c 0756 913d
00000260: a599 d2be 1ecf 3f3d 34f7 fd3d 784b 9dbd
00000270: c40c 803c 4d3a 853d 508d b73d 5841 253e
00000280: f3c3 13bc 7058 02bf a2e6 3fbe 1f3b b2bd
00000290: d624 b03d 3725 0bbe 087d 2c3e e8ff c3be
000002a0: 3b35 06bf 00ae a9bc 2280 3bbd bfe4 21be
000002b0: 1b9d 93be ba46 813e b6e3 593e f24d d6bd
000002c0: 0e17 463c 2108 37bd 6bb5 3cbd 481d ef3c
000002d0: 8f00 8ebe 3e73 d7bd 4a70 4cbe fd54 3bbe
000002e0: 9db9 b13c 225a 05bf 0610 b9bd 1f26 25bd
000002f0: 8e8c 10bd ea00 81be 4a7b bdbd a26f 4cbe
00000300: 8444 d5be 0b99 07be 141b 003c ccfe 0abe
00000310: e4de 12be e2df 9bbd 454c 293c 1547 e1be
00000320: 4316 ae3d 5c84 24bd ff43 863d 3514 7ebe
00000330: f959 f53e 2c42 3bbd 5e93 33be 69c9 d9bd
00000340: 4720 293d fe56 a7be 2dba 47be adad 723d
00000350: 2222 89be 96e4 abbd 8526 0abe 7ed5 d9be
00000360: 730b 17be 2572 9bbe dd70 40be aa17 59be
00000370: ccd2 893e f6be eabd c12d 1cbe ff9e ec3e
00000380: 4718 52be c3f1 03bf 75ce 863d a5a9 e13d
00000390: fb8c 37be 2de6 c3bc 6a87 303e 7829 68be
000003a0: d24f 12bf 1007 d2bd e2fa b2be de28 b9bb
000003b0: 16b7 453d ca7e 2fbe 0831 dfbe d7c8 8abe
000003c0: 734d 98bd 484d 20be d76d 31bd d22e c9be
000003d0: b03f 0fbf a4a0 873d 6a4a 763d 97f6 a5bc
000003e0: 8354 32be 1ae7 aabe d2c4 3dbe b3d9 57be
000003f0: f27c b9be ab94 803e 13da 44be adc3 6ebe

fc2.bias f4 [128]
-0.32128176 0.017385215 -0.13215137 -0.08339319 -0.21561064 -0.100921735 0.20114692 0.12177004
0.030409181 0.30142128 -0.41363555 -0.018082825 -0.119093284 -0.27688304 -0.021450514 -0.066236444
0.06211216 -0.17960225 0.22327185 -0.1643362 0.018310321 0.30733246 -0.1947331 -0.21246557
-0.51295775 0.079895176 -0.15048894 -0.31279436 -0.3693274 0.25873217 -0.11912013 -0.7166722
-0.5169341 -0.18073635 0.15636422 -0.28844234 -0.5532305 -0.06680859 -0.61263365 0.006126464
-0.15020104 -0.3185101 -0.46693748 -0.07244078 -0.051250253 -0.50122416 -0.37368095 0.18093863
0.19528086 -0.46929508 -0.35575032 -0.021632753 -0.47200254 -0.44025043 -0.0077996547 0.043774378
-0.0719728 -0.05126822 -0.20681196 -0.38190722 -0.13038065 -0.5185863 -0.40328223 -0.089875326
-0.10285995 0.3334866 -0.14131516 -0.16918744 -0.5127183 0.004952151 -0.2598841 -0.25193998
-0.4169284 -0.375455 -0.12088306 -0.4131013 -0.3627351 -0.37540022 -0.62632656 -0.6989807
-0.3230775 -0.48453757 -0.1621585 -0.32663643 -0.3418587 -0.31157565 -0.12422626 -0.40568402
0.33071035 -0.1998879 -0.14847164 -0.13309486 0.15480527 -0.019349556 -0.5936881 -0.78722906
-0.047858223 -0.12757911 -0.5055289 -0.05163764 -0.173303 -0.15468332 0.086146496 -0.011448697
-0.34440863 -0.30388033 0.003742951 -0.11030605 -0.45980003 0.07250344 -0.124281354 0.02140599
-0.83479345 -0.069359936 -0.07009561 -0.286464 -0.32246146 -0.7260123 -0.25730765 -0.80320805
-0.08764945 0.11815204 -0.105731115 -0.5232434 -0.24597248 -0.23243053 -0.07382457 0.39999512
00000000: 0b7f a4be 706b 8e3c b052 07be 0cca aabd
00000010: 09c9 5cbe 0eb0 cebd 75f9 4d3e 9262 f93d
00000020: ad1c f93c e453 9a3e 0ac8 d3be 6f22 94bc
00000030: 2ee7 f3bd 9dc3 8dbe fdb8 afbc f9a6 87bd
00000040: 5269 7e3d a7e9 37be 60a1 643e c047 28be
00000050: 87ff 953c ae5a 9d3e 1d68 47be 9390 59be
00000060: 3351 03bf 15a0 a33d c619 1abe 9526 a0be
00000070: 7b18 bdbe 8b78 843e 41f5 f3bd d477 37bf
00000080: cb55 04bf f312 39be f11d 203e b7ae 93be
00000090: 84a0 0dbf f1d2 88bd 8fd5 1cbf 81c0 c83b
000000a0: 4dce 19be c113 a3be 6e12 efbe d55b 94bd
000000b0: c9eb 51bd 3a50 00bf 1c53 bfbe fa47 393e
000000c0: b5f7 473e 7247 f0be e824 b6be 2c37 b1bc
000000d0: 51aa f1be 8168 e1be 3f94 ffbb c34c 333d
000000e0: 7a66 93bd a0fe 51bd 84c6 53be 5889 c3be
000000f0: 8182 05be 12c2 04bf 027b cebe 8e10 b8bd
00000100: 3da8 d2bd c1be aa3e ecb4 10be 793f 2dbe
00000110: 8241 03bf a745 a23b 870f 85be 47fe 80be
00000120: a477 d5be a33b c0be 8a91 f7bd 0382 d3be
00000130: 6ab8 b9be 7534 c0be f056 20bf 66f0 32bf
00000140: 6a6a a5be 4f15 f8be e10c 26be e43c a7be
00000150: 1b08 afbe d886 9fbe 566a febd d1b5 cfbe
00000160: de52 a93e 6aaf 4cbe f308 18be 054a 08be
00000170: 4685 1e3e f682 9ebc f1fb 17bf d887 49bf
00000180: fc06 44bd 19a4 02be 586a 01bf fd81 53bd
00000190: 5776 31be 4e65 1ebe 936d b03d 5193 3bbc
000001a0: 5456 b0be 3496 9bbe 4c4c 753b 23e8 e1bd
000001b0: e96a ebbe af7c 943d 3987 febd 9d5b af3c
000001c0: 06b5 55bf 950c 8ebd 4a8e 8fbd 69ab 92be
000001d0: ab19 a5be f1db 39bf d4bd 83be 0b9f 4dbf
000001e0: 8e81 b3bd b2f9 f13d 8e89 d8bd 48f3 05bf
000001f0: 36e0 7bbe 4502 6ebe 5631 97bd 29cc cc3e

fc3.weight f4 [2, 128]
0.5876556 0.25226015 0.012413279 0.029662743 0.0898689 -0.011523914 -0.073924765 0.023945512
0.16114531 0.02413725 0.6917415 -0.02254919 0.0046533532 -0.09768564 -0.07680803 -0.0029591485
-0.025873471 -0.074280754 0.08595119 -0.09521069 0.3204394 0.2837694 0.012053324 0.07797709
-0.27763835 0.002288365 -0.010619723 -0.08487232 0.11619441 -1.078405 0.33851627 -0.056132063
-0.021031536 0.2297893 0.091778874 -0.10685225 -0.24208495 -0.03470302 -0.072278745 -0.18444587
0.03781259 0.040973958 -0.08696744 0.14606349 0.096559785 -0.11087305 0.0722145 0.1743135
0.1583802 -0.18251902 -1.2942468 0.003986843 0.21002525 -0.0077058226 -0.2071143 -0.011318278
-0.030650051 0.07899497 -0.10714641 -0.05976938 -0.20948209 0.071074285 -0.20710434 0.055686686
-0.08940706 0.091773145 -0.108472265 0.018235574 -0.29384014 0.08578533 0.11683716 -0.26215896
-0.15299386 -1.1758225 -0.028194383 0.079819396 0.066152215 0.11339787 -0.09876333 -0.14122392
0.19025025 0.07171619 0.08965776 0.010391653 -1.7417808 0.1959304 -0.26611623 0.08475385
0.020427927 0.0007567541 0.061144516 0.001116372 0.01342622 0.119782224 0.028544761 -0.09141017
-0.012480589 0.00023864041 0.16623215 -0.057830926 0.10431168 0.08760205 -0.05298697 -1.1388993
0.28526053 -0.14494766 0.0047200643 -0.002718785 0.19611879 -0.061239075 -0.014798042 0.046034236
-0.1026447 -0.036988016 0.033398684 -0.049505185 0.39248228 -0.09897232 0.06513577 -0.026828162
-0.28927237 0.28942326 0.03536754 -0.45704743 -0.11070988 0.03989306 0.01647251 0.07160167
-0.61629784 -0.716014 0.01380206 0.2491781 -0.6381734 0.3239196 -4.899632 -0.772571
-0.18030831 0.18566792 -0.37593699 0.025238287 0.024667965 -0.38781554 0.030193394 0.17368157
-1.8121026 -0.89915586 0.38853425 -0.08497852 -0.87207717 -0.47971463 -0.7300995 -0.10068617
0.13669167 -0.7785337 -0.027589237 0.250831 0.57830006 0.06585459 -0.015169059 -0.2820763
0.3202052 0.034251492 -0.04767495 -0.74584305 0.23499103 -1.5725852 0.15931922 0.31958476
0.30230823 -0.6536239 0.011364908 0.7540868 -0.7353466 -0.006257618 0.8102712 -0.03318517
-0.10666639 0.100642115 0.12702513 -1.5035604 0.012730581 0.35053182 -1.7162778 -0.02821133
0.34504655 -1.543529 -0.095796525 -0.1605585 0.39300773 0.1308845 0.02942464 -0.22092095
-0.048504118 0.03801472 0.03968758 0.29864478 0.29906654 -0.62496144 0.0598057 -0.6321857
-0.10831747 0.049779397 1.0416286 0.038390625 -0.22362117 -0.020598233 0.6930768 -0.26599336
0.14706975 -0.10821797 -0.082759 -0.17144398 0.07795769 -0.10697129 -0.123351686 0.5291888
0.15163954 -0.6237532 -0.73882174 0.08419038 0.41850445 -0.0528815 -0.47879648 0.2562885
-0.0007959701 0.37407726 -0.01314991 -0.22411273 0.092539005 -0.4239906 -0.42592883 -0.39630267
-0.23716883 0.18367328 0.47641858 0.027501553 0.17898364 0.07330361 -0.021533402 -1.1192797
0.077230416 0.10344597 -0.03148975 -0.55112517 -0.24005078 0.26523802 -0.38803235 0.31276783
-0.2407062 -0.5210004 -0.033158068 -0.16696799 -0.12319632 -0.48864755 -0.08126942 0.086563885
00000000: 9970 163f 3e28 813e 1161 4b3c 48ff f23c
00000010: 300d b83d ccce 3cbc de65 97bd 6129 c43c
00000020: 4703 253e 7bbb c53c f915 313f 14b9 b8bc
00000030: 287b 983b 690f c8bd 874d 9dbd 46ee 41bb
00000040: 9af4 d3bc 8220 98bd 2d07 b03d d2fd c2bd
00000050: a210 a43e 394a 913e 4e7b 453c 74b2 9f3d
00000060: 9d26 8ebe 65f8 153b 59fe 2dbc 8ad1 adbd
00000070: 56f7 ed3d 2d09 8abf 0152 ad3e bcea 65bd
00000080: 544a acbc e34d 6b3e 90f6 bb3d 5ad5 dabd
00000090: 1ee5 77be c124 0ebd e106 94bd 61df 3cbe
000000a0: 60e1 1a3d 4fd4 273d fc1b b2bd ab91 153e
000000b0: 23c1 c53d 6911 e3bd 32e5 933d 3d7f 323e
000000c0: 6b2e 223e 44e6 3abe e1a9 a5bf 10a4 823b
000000d0: dc10 573e 2081 fcbb c515 54be 4c70 39bc
000000e0: d115 fbbc 1dc8 a13d 946f dbbd bdd0 74bd
000000f0: 7982 56be 658f 913d 2913 54be b917 643d
00000100: 0c1b b7bd 8ff3 bb3d b526 debd c562 953c
00000110: 3772 96be 38b0 af3d 5248 ef3d b339 86be
00000120: 6caa 1cbe 5a81 96bf e8f7 e6bc 5a78 a33d
00000130: d07a 873d 243d e83d 6e44 cabd 019d 10be
00000140: f6d0 423e f0df 923d 7d9e b73d c041 2a3c
00000150: acf2 debf fba1 483e 6340 88be 6d93 ad3d
00000160: 7858 a73c e860 463a ac72 7a3d 3a53 923a
00000170: a6f9 5b3c 6250 f53d b4d6 e93c 4135 bbbd
00000180: 627b 4cbc 8c3b 7a39 c338 2a3e 1fe0 6cbd
00000190: 5da1 d53d b468 b33d dd08 59bd 74c7 91bf
000001a0: ab0d 923e 296d 14be c5aa 9a3b a52d 32bb
000001b0: 5dd3 483e d3d5 7abd 7d73 72bc 658e 3c3d
000001c0: 6237 d2bd bf80 17bd 0fcd 083d f3c5 4abd
000001d0: 70f3 c83e 00b2 cabd e765 853d bcc6 dbbc
000001e0: 821b 94be 492f 943e 8edd 103d 1f02 eabe
000001f0: ddbb e2bd e866 233d 5bf1 863c e5a3 923d
00000200: b2c5 1dbf b24c 37bf 0922 623c 8b28 7f3e
00000210: 555f 23bf cad8 a53e c9c9 9cc0 37c7 45bf
00000220: bea2 38be bb1f 3e3e d07a c0be 86c0 ce3c
00000230: 7914 ca3c c28f c6be 2358 f73c 95d9 313e
00000240: faf2 e7bf 142f 66bf f6ed c63e 3809 aebd
00000250: 7340 5fbf 289d f5be cde7 3abf 8d34 cebd
00000260: e7f8 0b3e fc4d 47bf d302 e2bc ec6c 803e
00000270: 790b 143f c5de 863d a587 78bc 4e6c 90be
00000280: f0f1 a33e 4b4b 0c3d cf46 43bd 92ef 3ebf
00000290: 7da1 703e 794a c9bf 9424 233e 9da0 a33e
000002a0: 25c8 9a3e e553 27bf e133 3a3c d50b 413f
000002b0: ad3f 3cbf b40c cdbb ef6d 4f3f 2ced 07bd
000002c0: e973 dabd 741d ce3d e012 023e ab74 c0bf
000002d0: ed93 503c e878 b33e feae dbbf 721b e7bc
000002e0: f1a9 b03e 5c92 c5bf f830 c4bd 7369 24be
000002f0: 4f38 c93e 9606 063e f10b f13c 1a39 62be
00000300: 41ac 46bd 53b5 1b3d 728f 223d f8e7 983e
00000310: 401f 993e 79fd 1fbf d2f6 743d ecd6 21bf
00000320: 8dd5 ddbd 7be5 4b3d 1654 853f 7d3f 1d3d
00000330: f3fc 64be a0bd a8bc 7b6d 313f 4830 88be
00000340: 7499 163e 62a1 ddbd 8d7d a9bd 038f 2fbe
00000350: 48a8 9f3d c413 dbbd cf9f fcbd eb78 073f
00000360: 6547 1b3e 4aae 1fbf 6c23 3dbf 026c ac3d
00000370: 3746 d63e 469a 58bd d024 f5be 3f38 833e
00000380: a6a8 50ba 0e87 bf3e b872 57bc cf7d 65be
00000390: 1785 bd3d 4c15 d9be 5813 dabe 2fe8 cabe
000003a0: 63dc 72be d914 3c3e 23ed f33e f04a e13c
000003b0: 7d47 373e 3420 963d d166 b0bc 8f44 8fbf
000003c0: fb2a 9e3d 7bdb d33d 65fb 00bd 8a16 0dbf
000003d0: dfcf 75be 47cd 873e 2dac c6be 1b23 a03e
000003e0: b07b 76be 4860 05bf c1d0 07bd a8f9 2abe
000003f0: 5a4e fcbd 0330 fabe 9570 a6bd 6848 b13d

fc3.bias f4 [2]
0.019128997 -0.051234428
00000000: 6ab4 9c3c 31db 51bd
