checkpoint1_critic.pth (torch_old, 159737 bytes, 5 tensors)

fc1.weight f4 [256, 24]
0.4617697 -0.62870663 -0.08613883 0.11636251 -0.5141227 -0.13400212 -0.13390706 0.1839576
0.5575727 -0.5382516 -0.13611229 0.28414482 -0.28086194 0.13270545 -0.03627341 0.29238683
0.8437622 -0.5660263 -0.0664349 0.07885571 -0.447889 0.45861098 -0.16177028 0.10630287
0.3240305 -0.52562636 -0.061190486 -0.38007838 -0.96622825 -0.28261662 -0.016512703 -0.40132028
0.27070642 -0.5792707 -0.12803224 -0.09066074 -0.24049942 -0.62717724 -0.16407779 -0.09271423
0.2549039 -0.59425825 -0.027445273 -0.102091715 0.8027957 -0.9762983 0.014971588 -0.07417968
0.14021806 -1.1468474 -0.06711822 0.020772383 -0.06602181 -0.46448803 -0.04581312 0.034184158
0.11571465 -1.0654862 -0.086101614 0.06762244 -0.052667893 -0.7560485 -0.071755074 0.14417136
0.17735992 -1.0876476 -0.11140679 -0.20511964 0.009752227 -1.1907688 -0.17066248 -0.20266536
0.007844591 0.03909699 -0.035381645 0.364143 -0.4383659 -0.8392481 -0.024299154 0.38435644
-0.035195645 0.1945545 -0.047609985 0.2616683 0.0128555875 -0.29404965 0.01635447 0.18398587
-0.07009945 0.2077119 -0.07089512 0.022321356 0.4642909 0.33622372 -0.05586494 0.01414683
1.3250353 0.93134475 -0.11428879 0.05811093 0.01732797 -0.75589746 -0.053593494 0.012841444
0.51010996 0.010412768 -0.021652484 -0.10853416 0.6540153 0.15891498 -0.04346755 -0.011581114
0.41496924 -0.17104052 -0.00078416895 -0.024806537 0.6732855 1.0674777 0.040578373 -0.06718471
0.026971992 -0.7109951 -0.0007890329 0.24453036 0.8747077 0.023755848 -0.04162857 0.20316565
0.21725155 -0.7901415 0.020089446 0.019703427 -0.13196369 -0.006613364 -0.0046449634 -0.0038830417
0.36492217 -0.8080726 -0.030741675 -0.043827876 -0.9851615 0.104511596 -0.015126181 -0.116850354
0.19410178 1.004949 -0.030605968 -0.5517155 -0.6039212 0.4623963 0.010023622 -0.49821013
0.28198767 0.68952894 0.08995982 -0.11661981 0.12742476 0.38001466 0.008424978 -0.1634403
0.39703897 0.663941 -0.022638703 -0.039106265 1.0853956 0.08632058 -0.025258744 0.0022042731
0.54690427 -0.114624985 -0.04512529 -0.1633702 -0.11929014 -0.745644 -0.011258711 -0.1407412
0.48535168 -0.21163839 -0.18883115 -0.17416076 0.17834003 -1.8565179 -0.117266126 -0.10436612
0.3230858 -0.34688812 -0.2406771 -0.320316 0.36143267 -1.628596 -0.21906075 -0.35586938
0.2548504 -0.075077735 -0.06302943 0.112432525 0.28587797 -0.02228577 -0.041912418 0.08818513
-0.06162119 -0.41454077 -0.114875674 0.2479646 -0.02686065 0.35090658 -0.19859777 0.16922389
0.12798475 -0.42444566 -0.124183044 -0.24116515 -0.32679752 0.10632913 -0.12228 -0.26564854
-0.028403087 0.28172705 -0.0063377907 -0.37541234 -0.114810556 0.042732596 0.061628986 -0.38338286
0.14250833 -0.026869895 0.033154715 -0.25601813 -0.14058225 -0.030333895 -0.035075765 -0.2665116
0.19583109 0.01688521 -0.08759321 -0.20413792 -0.10713058 -1.677746 -0.0068418616 -0.24017093
0.12278851 0.27805373 0.13737558 -0.10258533 -0.78630406 0.48026806 0.124243975 -0.053429015
0.15815073 0.22035407 0.078807175 -0.11793522 -0.18160781 0.10669376 -0.005638932 -0.10492366
00000000: 146d ec3e ebf2 20bf 8e69 b0bd 784f ee3d
00000010: 8c9d 03bf da37 09be ef1e 09be 625f 3c3e
00000020: 16bd 0e3f dbca 09bf 0561 0bbe 6e7b 913e
00000030: 23cd 8fbe f0e3 073e 6d93 14bd bab3 953e
00000040: cd00 583f 19e7 10bf 050f 88bd 1a7f a13d
00000050: b551 e5be 0fcf ea3e 1ca7 25be 52b5 d93d
00000060: 53e7 a53e 738f 06bf e0a2 7abd a299 c2be
00000070: bc5a 77bf 20b3 90be a645 87bc da79 cdbe
00000080: 089a 8a3e 164b 14bf e21a 03be 57ac b9bd
00000090: 7b45 76be b08e 20bf 0204 28be f5e0 bdbd
000000a0: c482 823e 4f21 18bf e9d4 e0bc 7615 d1bd
000000b0: 0584 4d3f afee 79bf 644b 753c 84eb 97bd
000000c0: 5395 0f3e e5cb 92bf 4775 89bd d82a aa3c
000000d0: 7136 87bd 60d1 edbe 8aa6 3bbd b004 0c3d
000000e0: cdfb ec3d da61 88bf 0b56 b0bd a27d 8a3d
000000f0: 4aba 57bd 658c 41bf 53f4 92bd a8a1 133e
00000100: d79d 353e 0938 8bbf 3e29 e4bd e20a 52be
00000110: cec7 1f3c 1d6b 98bf 25c2 2ebe 8287 4fbe
00000120: 9986 003c 2a24 203d 58ec 10bd f470 ba3e
00000130: 7f71 e0be f7d8 56bf 050f c7bc 5eca c43e
00000140: 4f29 10bd 4b39 473e b002 43bd 63f9 853e
00000150: 3ea0 523c ad8d 96be cff9 853c cb66 3c3e
00000160: 4d90 8fbd 6eb2 543e 7631 91bd 47db b63c
00000170: 89b7 ed3e 8425 ac3e a3d2 64bd 1bc8 673c
00000180: c29a a93f 9c6c 6e3f 3e10 eabd ba05 6e3d
00000190: 63f3 8d3c 7f82 41bf da84 5bbd ec64 523c
000001a0: 9196 023f 519a 2a3c 8d60 b1bc 2847 debd
000001b0: 8c6d 273f 9cba 223e 080b 32bd b6be 3dbc
000001c0: d976 d43e 3f25 2fbe b090 4dba 1437 cbbc
000001d0: 705c 2c3f 1ca3 883f 8235 263d 2398 89bd
000001e0: 5ef4 dc3c c603 36bf 1ad7 4eba 2b66 7a3e
000001f0: d8ec 5f3f a09b c23c b882 2abd a80a 503e
00000200: 3177 5e3e b746 4abf 9f92 a43c 1569 a13c
00000210: 7d21 07be ebb4 d8bb c734 98bb a17a 7ebb
00000220: 14d7 ba3e d9dd 4ebf f7d5 fbbc dc84 33bd
00000230: 8b33 7cbf 2d0a d63d cdd3 77bc 3d4f efbd
00000240: 9ec2 463e 2ba2 803f 5eb9 fabc 3a3d 0dbf
00000250: 949a 1abf 35bf ec3e 1e3a 243c 6615 ffbe
00000260: b060 903e f884 303f db3c b83d 5ed6 eebd
00000270: a37b 023e 4891 c23e eb08 0a3c e55c 27be
00000280: b148 cb3e 0af8 293f cd74 b9bc e42d 20bd
00000290: 3eee 8a3f d8c8 b03d 6deb cebc 9175 103b
000002a0: eb01 0c3f 81c0 eabd 4cd5 38bd 854a 27be
000002b0: 644e f4bd 86e2 3ebf 7576 38bc 761e 10be
000002c0: 0480 f83e bcb7 58be f45c 41be 3357 32be
000002d0: c59e 363e 61a2 edbf 3929 f0bd e8bd d5bd
000002e0: 816b a53e 529b b1be 0f74 76be 7500 a4be
000002f0: b40d b93e d575 d0bf 7651 60be 8334 b6be
00000300: c07b 823e 5bc2 99bd 9315 81bd 0643 e63d
00000310: 995e 923e a690 b6bc 5bac 2bbd 689a b43d
00000320: 8066 7cbd b03e d4be f043 ebbd 6fea 7d3e
00000330: de0a dcbc 07aa b33e 375d 4bbe 0749 2d3e
00000340: 6f0e 033e f150 d9be ae53 febd fff3 76be
00000350: 0152 a7be 16c3 d93d f06d fabd 1603 88be
00000360: 97ad e8bc 873e 903e 3ead cfbb 0c36 c0be
00000370: cc21 ebbd 6008 2f3d ad6e 7c3d c24a c4be
00000380: b4ed 113e 411e dcbc 3dcd 073d cf14 83be
00000390: cbf4 0fbe ca7e f8bc 9bab 0fbd 3574 88be
000003a0: f287 483e da52 8a3c 1264 b3bd 8809 51be
000003b0: 4767 dbbd 62c0 d6bf b231 e0bb 5eef 75be
000003c0: 8b78 fb3d 0f5d 8e3e 2fac 0c3e 4218 d2bd
000003d0: 394b 49bf b2e5 f53e a073 fe3d 62d8 5abd
000003e0: 44f2 213e 7fa4 613e a865 a13d 0588 f1bd
000003f0: 66f7 39be 4282 da3d cac6 b8bb 37e2 d6bd

fc1.bias f4 [256]
-0.62742203 0.77672464 0.50631106 -0.28462735 0.021985048 -0.09154729 -0.6721597 -0.8314519
-0.049077667 -0.36891377 0.09273997 -0.04091378 0.08651102 -0.5837882 -0.36481985 -0.09617348
-0.040165413 -0.7048371 0.07008441 -0.6244097 -0.12940758 -0.54324543 -0.5597371 -1.1784383
-0.52117896 -0.140352 -0.53829813 -0.059648115 -0.73991746 -0.041075867 -0.8500377 -0.93033177
-0.70238745 -0.108854935 0.19816808 -0.7466561 -0.43009815 -0.65578395 0.041092318 0.14774288
-0.5181992 -1.1249491 -0.8100497 -0.40059754 -0.4414631 -0.7330202 -0.10623397 -0.71406925
0.36350158 -0.2804028 -0.013764531 0.4790966 -0.34840265 -0.23365273 0.1747885 0.5556972
-0.38228384 -0.49979752 -0.6888118 0.18290824 0.101952046 -0.5964908 -0.15537569 -0.58300483
-0.11431665 -0.4838984 -0.6003088 -0.09931325 -0.45731747 -0.658617 -0.4762219 -0.31635252
-0.053399824 -0.36895406 -0.35226795 -0.06615264 0.4003339 0.3666057 -0.3960666 0.054810494
-0.5077687 -0.46579522 -0.009408181 -0.71603984 -0.33715773 -0.5625803 -0.11988096 -0.39868045
0.0793449 -0.0843585 -0.77885526 0.049461294 -0.5334284 -0.26291174 -0.665687 -0.5721159
-0.37664947 -1.0012454 -0.39593953 -0.7010316 -0.024471018 -0.8407191 -0.2844527 0.261048
-0.91607416 -0.6861394 -0.3728518 -0.058080148 0.21271876 -0.510986 -0.4999071 -0.49512705
-0.46281517 -0.29236472 -0.16583079 -0.13082285 0.6374073 -0.44446465 -0.5074418 -0.24914157
-0.56134963 -0.2520659 -0.11728264 0.49252018 -0.27464187 -0.24752338 0.05206275 -0.34964776
0.5508849 -0.2702712 -0.9118071 0.3312269 -0.4000288 -0.14303279 0.03372752 -0.63049734
-0.5952753 -0.4519693 -0.099731214 -0.33636314 0.37114927 -0.29537436 -0.4831656 -0.16294332
0.27204385 -0.936372 -1.2210933 -0.17814554 -0.65460294 0.24577227 0.09495865 0.32160598
-0.49514586 -1.02299 0.4120168 -0.39199495 -0.64701205 -0.3914611 -0.47837824 0.20318215
-0.48604077 -0.69185936 -0.27386162 -0.12273607 -0.2538182 0.638071 0.06294834 -0.30306014
0.51800406 -0.63934916 0.07221358 -0.98093516 -0.8396025 -0.2549016 -1.2434909 -0.60924745
-0.31719548 0.5191465 -0.7166341 0.54953647 -0.25090063 0.19132829 -0.78386176 -0.23063575
-0.0035812925 -0.34967396 -0.46546927 0.7690165 0.06939769 -0.5076943 -0.6486211 0.04927199
-0.21871269 -0.5100781 0.6296381 -0.6128542 -0.79705644 0.23759894 0.070527576 -0.69255906
-0.6194391 -0.9596133 -0.5186514 -1.0021745 -0.51035357 0.45566574 -0.73988426 0.13136077
-0.67896056 0.14131758 -0.4097097 -0.85126805 0.2910216 -0.40313894 -0.8650403 -0.82638806
0.28570214 -0.8996764 0.24637182 -1.0380572 -0.15390697 -0.046802077 0.37782332 -0.20732592
0.5712919 -0.46483546 -0.30131906 -0.669508 0.17903641 -0.32431033 0.1735275 -0.11953374
-1.2530911 -0.7388265 0.14041893 0.076507464 -0.21294773 -0.5112634 -0.84441376 0.14344473
-0.61782223 0.18086877 -0.36070108 -0.24204414 -0.14517784 -0.3925314 -0.010130021 -1.0971129
-0.06914281 -0.70309657 -0.625859 -1.3164233 0.5129305 0.5297575 -0.827151 0.04567212
00000000: bb9e 20bf 6dd7 463f 9a9d 013f adba 91be
00000010: fd19 b43c 257d bbbd a812 2cbf 08da 54bf
00000020: aa05 49bd 44e2 bcbe 74ee bd3d 3595 27bd
00000030: b12c b13d 2573 15bf abc9 babe 9af6 c4bd
00000040: 7d84 24bd 3470 34bf 6a88 8f3d 50d9 1fbf
00000050: 6c83 04be 2212 0bbf ee4a 0fbf 11d7 96bf
00000060: fc6b 05bf 6fb8 0fbe e8cd 09bf 9551 74bd
00000070: 3b6b 3dbf 2b3f 28bd 129c 59bf 392a 6ebf
00000080: aacf 33bf 56ef debd 93ec 4a3e db24 3fbf
00000090: d335 dcbe 75e1 27bf 6b50 283d e949 173e
000000a0: b4a8 04bf 55fe 8fbf 6b5f 4fbf 1f1b cdbe
000000b0: 7407 e2be 36a7 3bbf 3291 d9bd 3ecd 36bf
000000c0: e11c ba3e f590 8fbe a184 61bc 264c f53e
000000d0: d561 b2be a942 6fbe c2fb 323e 2c42 0e3f
000000e0: b5ba c3be 76e5 ffbe f855 30bf 4c4c 3b3e
000000f0: 3ccc d03d 9fb3 18bf ce1a 1fbe ce3f 15bf
00000100: d91e eabd 88c1 f7be d6ad 19bf bf64 cbbd
00000110: 8425 eabe 209b 28bf 5bd3 f3be f5f8 a1be
00000120: c6b9 5abd 8ce7 bcbe 775c b4be 097b 87bd
00000130: 91f8 cc3e beb3 bb3e 3ec9 cabe f880 603d
00000140: 21fd 01bf b67c eebe c524 1abc 634e 37bf
00000150: f09f acbe 4305 10bf 2684 f5bd d81f ccbe
00000160: 947f a23d 26c4 acbd 0f63 47bf ed97 4a3d
00000170: c38e 08bf 5e9c 86be 776a 2abf 3076 12bf
00000180: 33d8 c0be cf28 80bf 96b8 cabe cf76 33bf
00000190: 7277 c8bc 5e39 57bf c9a3 91be 15a8 853e
000001a0: d683 6abf d5a6 2fbf 6ee6 bebe 73e5 6dbd
000001b0: f2d2 593e facf 02bf d3f3 ffbe 4b81 fdbe
000001c0: 1cf6 ecbe d4b0 95be 8ccf 29be 6df6 05be
000001d0: 202d 233f df90 e3be b5e7 01bf f81e 7fbe
000001e0: 9cb4 0fbf c80e 81be e131 f0bd 9b2b fc3e
000001f0: dc9d 8cbe c576 7dbe c03f 553d 0805 b3be
00000200: cb06 0d3f fd60 8abe 316c 69bf 9296 a93e
00000210: 93d0 ccbe 3077 12be de25 0a3d 4668 21bf
00000220: f663 18bf 8568 e7be e13f ccbd ca37 acbe
00000230: 4707 be3e 4f3b 97be 7b61 f7be 9dda 26be
00000240: 5549 8b3e 13b6 6fbf c94c 9cbf c96b 36be
00000250: 0f94 27bf baab 7b3e ae79 c23d 8aa9 a43e
00000260: c283 fdbe 56f1 82bf def3 d23e 90b3 c8be
00000270: 95a2 25bf 976d c8be feed f4be fb0e 503e
00000280: 56da f8be b21d 31bf 9737 8cbe 0c5d fbbd
00000290: 76f4 81be 9f58 233f 0feb 803d b32a 9bbe
000002a0: ea9b 043f 63ac 23bf b7e4 933d 911e 7bbf
000002b0: 30f0 56bf 7682 82be b62a 9fbf a4f7 1bbf
000002c0: 7267 a2be c9e6 043f 5575 37bf 6cae 0c3f
000002d0: 0c76 80be 90eb 433e 2aab 48bf c72b 6cbe
000002e0: 1eb4 6abb 7708 b3be fd51 eebe 44de 443f
000002f0: 6020 8e3d 41f8 01bf 080c 26bf 6dd1 493d
00000300: 38f6 5fbe 7a94 02bf f62f 213f 03e4 1cbf
00000310: e40b 4cbf 234d 733e c370 903d 8d4b 31bf
00000320: 9093 1ebf 38a9 75bf 57c6 04bf 4147 80bf
00000330: 88a6 02bf 054d e93e 0e69 3dbf 7083 063e
00000340: 5cd0 2dbf 8eb5 103e 78c5 d1be b4ec 59bf
00000350: c800 953e 3a68 cebe 4873 5dbf 2b8e 53bf
00000360: 8d47 923e 3151 66bf e548 7c3e 0fdf 84bf
00000370: ca99 1dbe 89b3 3fbd 0f72 c13e 3f4d 54be
00000380: 3040 123f eafe edbe 7e46 9abe e064 2bbf
00000390: 5255 373e 010c a6be 31b1 313e 1bce f4bd
000003a0: 4a65 a0bf bc23 3dbf fbc9 0f3e f2af 9c3d
000003b0: f80e 5abe 28e2 02bf 802b 58bf 2de3 123e
000003c0: 9929 1ebf aa35 393e d0ad b8be 6bda 77be
000003d0: 80a9 14be e0f9 c8be 63f8 25bc 326e 8cbf
000003e0: bf9a 8dbd 23fe 33bf 4c38 20bf 8f80 a8bf
000003f0: 6a4f 033f 309e 073f 2bc0 53bf b012 3b3d

fc2.weight f4 [128, 258]
0.040915713 0.22420625 0.21477695 -0.44369835 -0.1308374 -0.20605238 0.20126815 0.24961181
-0.154788 -0.8361376 -0.870716 0.083543345 -0.112145595 0.1862374 0.34096143 -0.35968846
0.14642118 0.06960506 -0.3092166 -0.8926035 -0.53303194 0.27839035 -0.018662151 -0.18465841
-0.111849315 -0.21302585 -0.15098183 0.14099403 -0.31123933 -1.2661211 -0.4170359 -0.22727226
-0.2656813 -0.03797453 -0.051359978 -0.39179245 -0.20375665 -0.07594068 -0.15943885 0.11876968
-0.11349322 -0.22174753 0.017744076 0.20606671 -0.12799083 0.37862828 0.26727277 -0.07493373
0.026954712 -0.24978743 -0.0063429303 0.006486956 0.09408854 -0.23811264 0.021907063 0.22817266
0.21833858 0.19926098 0.24855614 -0.02807058 -0.1630292 -0.59075767 -0.17119001 -0.596866
0.12803778 0.12356614 0.78801274 -0.43500417 -0.09709943 -0.034843363 0.04533042 -0.13798183
-0.2165588 0.18041945 0.10732574 0.16349699 0.17136589 -0.48822343 -0.21578236 0.099738695
-0.06150754 -0.20993398 0.2883303 0.200877 -0.03047835 -0.13373162 -0.34935012 0.4104047
-0.065583445 0.15976891 -0.5050128 -0.29853964 -0.36148578 -0.53168917 0.003973743 -0.3645918
0.2295029 0.39235815 -0.014396012 -0.22660807 -0.25468513 0.07874533 0.096674085 -0.12806144
0.22287938 -0.63021517 -0.34319174 0.02031992 -0.31692517 -0.29181373 -0.29112476 -0.053433377
-0.21378437 0.1410726 -0.048390716 0.10856501 0.4560846 -0.36704224 -0.030607268 -0.4915603
-0.3708341 0.10705475 -0.01821233 -0.4450315 0.09933083 -0.070770085 0.16070274 -0.33697385
-0.90783775 -0.1099052 -0.2412032 -0.54292387 0.029923394 -0.015903758 0.07862688 -0.246365
-0.81504536 -0.8729746 -0.23417872 -0.03979551 -0.32157665 0.07973345 -0.31313476 -0.039381854
0.09886592 0.13160817 0.11761065 0.22521952 -0.5613731 -0.027802618 -0.25830883 -0.59656674
-0.11775611 0.26832703 -0.16704847 0.43060136 -0.5231281 -0.1848769 -0.3315043 -0.11112987
0.37005267 -0.07590174 0.28936836 -0.052537564 0.23035315 -0.33165354 -0.26544285 0.2541172
-0.14707786 -0.026315397 0.13614956 -0.15624636 0.4756327 0.1957093 0.17646936 -0.64677036
0.1161286 0.22208297 -0.66845894 -0.30812687 0.16863027 0.13909703 0.15407462 -0.040459536
-0.014738046 -0.50367814 -0.064254254 0.061159916 0.30748197 -0.16010669 -0.3013751 -0.31613788
0.046339564 -0.015530297 -0.28690454 0.29004717 -0.20436318 -0.9330095 -0.3445796 -0.055667985
0.12862465 -0.30773348 0.22117198 -0.55689865 0.008518351 -0.4048573 0.08429224 0.058910813
-0.27903485 -0.07085839 0.21643321 -0.1123098 0.3907798 0.06930661 -0.2983411 0.14750327
0.050853368 0.017085662 0.16743977 -0.57007277 -0.22277659 0.09113016 -0.39927542 -0.036676325
-0.21623278 -0.5065186 -0.267968 0.23294832 -0.059219383 -0.19700973 0.28125012 0.6257455
-0.32825142 0.023856297 -0.60799557 0.3892839 -0.28258047 -0.104798436 -0.36340964 0.09834583
-0.15398642 -0.17037863 -0.4177676 -0.30912513 -0.11145437 0.032393217 0.060787752 0.091861956
-0.18657078 -0.046966247 -0.08252312 -0.008497979 -0.21449932 0.63279366 -0.040971715 -0.53035253
00000000: 3c97 273d 5396 653e 7dee 5b3e 6e2c e3be
00000010: 3dfa 05be 65ff 52be 3d19 4e3e 3d9a 7f3e
00000020: bf80 1ebe 1d0d 56bf 3ee7 5ebf c618 ab3d
00000030: 97ac e5bd 04b5 3e3e 7f92 ae3e 1629 b8be
00000040: 6fef 153e 198d 8e3d a351 9ebe aa81 64bf
00000050: c874 08bf 2e89 8e3e 5ee1 98bc 1817 3dbe
00000060: 4111 e5bd 7323 5abe fb9a 1abe bd60 103e
00000070: c35a 9fbe 4210 a2bf bb85 d5be 0fba 68be
00000080: 6107 88be 2e8b 1bbd d75e 52bd 0599 c8be
00000090: 95a5 50be ca86 9bbd f043 23be 853d f33d
000000a0: 226f e8bd c911 63be 065c 913c 2703 533e
000000b0: 0710 03be 91db c13e fad7 883e db76 99bd
000000c0: 21d0 dc3c 47c8 7fbe 5bd8 cfbb 8890 d43b
000000d0: 7eb1 c03d cdd3 73be 7176 b33c 18a6 693e
000000e0: 2694 5f3e 120b 4c3e 8085 7e3e 46f4 e5bc
000000f0: 20f1 26be e53b 17bf 6f4c 2fbe 36cc 18bf
00000100: 561c 033e 3f10 fd3d 34bb 493f deb8 debe
00000110: 11dc c6bd eab7 0ebd 64ac 393d 1c4b 0dbe
00000120: 97c1 5dbe e0bf 383e 99cd db3d c16b 273e
00000130: 8a7a 2f3e 6cf8 f9be 0df6 5cbe cd43 cc3d
00000140: 55ef 7bbd eff8 56be 07a0 933e b3b2 4d3e
00000150: bcad f9bc f1f0 08be 05de b2be 9120 d23e
00000160: 9d50 86bd 769a 233e 8548 01bf 30da 98be
00000170: aa14 b9be c81c 08bf 2c36 823b c7ab babe
00000180: cf02 6b3e 2be3 c83e 40dd 6bbc f20b 68be
00000190: 1766 82be 3b45 a13d 10fd c53d 8a22 03be
000001a0: 7e3a 643e c855 21bf d4b6 afbe f675 a63c
000001b0: 0444 a2be 9c68 95be 4e0e 95be f5dc 5abd
000001c0: 4aea 5abe 5675 103e 5835 46bd 5557 de3d
000001d0: ec83 e93e f6ec bbbe 18bc fabc cbad fbbe
000001e0: f8dd bdbe 853f db3d 0632 95bc 2bdb e3be
000001f0: f66d cb3d e8ef 90bd 428f 243e d687 acbe
00000200: 0e68 68bf fa15 e1bd f9fd 76be 0ffd 0abf
00000210: e821 f53c 9948 82bc 2107 a13d 1b47 7cbe
00000220: d0a6 50bf 437b 5fbf 8ccc 6fbe 9e00 23bd
00000230: b2a5 a4be 4b4b a33d 3353 a0be de4e 21bd
00000240: 377a ca3d 4bc4 063e dadd f03d f29f 663e
00000250: 26b6 0fbf 51c2 e3bc 0e41 84be 99b8 18bf
00000260: 1e2a f1bd 2962 893e c10e 2bbe c877 dc3e
00000270: b9eb 05bf 5f50 3dbe eeba a9be 0f98 e3bd
00000280: 8b77 bd3e 5f72 9bbd 1728 943e a131 57bd
00000290: b2e1 6b3e 7ece a9be 20e8 87be a61b 823e
000002a0: 949b 16be 6393 d7bc ca6a 0b3e 0cff 1fbe
000002b0: 2186 f33e 0568 483e 62b4 343e be92 25bf
000002c0: d5d4 ed3d b869 633e 2020 2bbf cec2 9dbe
000002d0: 6aad 2c3e 746f 0e3e bdc5 1d3e e6b8 25bd
000002e0: d877 71bc 0df1 00bf bc97 83bd d282 7a3d
000002f0: 476e 9d3e 02f3 23be d64d 9abe d3dc a1be
00000300: 8ece 3d3d c972 7ebc 27e5 92be 1081 943e
00000310: 9544 51be b6d9 6ebf bd6c b0be 1d04 64bd
00000320: 2eb6 033e 3e8f 9dbe e87a 623e e990 0ebf
00000330: 8e90 0b3c 7549 cfbe 69a1 ac3d 774c 713d
00000340: a8dd 8ebe 341e 91bd aba0 5d3e ae02 e6bd
00000350: 4a14 c83e a0f0 8d3d 2ac0 98be 190b 173e
00000360: 9f4b 503d 3bf7 8b3c 5575 2b3e 4af0 11bf
00000370: 8c1f 64be 73a2 ba3d d46d ccbe ea39 16bd
00000380: 206c 5dbe 34ab 01bf 1a33 89be 018a 6e3e
00000390: 0690 72bd ebbc 49be 0400 903e db30 203f
000003a0: 9210 a8be 486e c33c 99a5 1bbf 3850 c73e
000003b0: 63ae 90be 90a0 d6bd d410 babe 8a69 c93d
000003c0: 9eae 1dbe bc77 2ebe a3e5 d5be a645 9ebe
000003d0: 3042 e4bd c0ae 043d 94fc 783d 1f22 bc3d
000003e0: 690c 3fbe ae5f 40bd e201 a9bd 1b3b 0bbc
000003f0: b6a5 5bbe c4fe 213f f5d1 27bd 2fc5 07bf

fc2.bias f4 [128]
-0.43658063 0.06865092 -0.10689151 -0.14083342 -0.3087692 -0.2630522 0.056014717 -0.558907
-0.028684245 -0.4691072 -0.07303627 -0.20973603 -0.16257934 -0.24394542 -0.059943218 -0.07543473
-0.22521533 0.46274415 0.29229432 -0.6132804 -0.37338763 -0.5761222 -0.46790746 -0.0033088892
0.090439394 -0.44273433 0.14039859 -0.08005503 0.10341202 -0.45950514 -0.27983448 0.11703491
0.24769564 -0.43332505 -0.40295914 -0.030679867 0.5451066 -1.0832735 -0.18856478 -0.30321312
-0.66669583 -0.8640229 0.029096723 -0.59125835 -0.3521452 -0.11123253 -0.55968934 -0.45262054
-0.33987978 -0.41144514 0.062080648 -0.32496092 -0.5624507 0.27432334 -0.34155306 -0.45513982
-0.26590228 -0.020621259 -0.256643 -0.54844385 -0.2521211 -0.2806552 -0.39086643 -0.23820488
-0.5124373 -0.63130575 -0.2642217 -0.29233113 0.33107036 -0.06390866 -0.29801065 0.4795687
-0.29009682 -0.34418234 0.059158288 -0.5420185 -0.4425552 -0.5010495 -0.92916864 -0.32205227
-1.0661404 -0.21820278 0.03217633 0.012653925 -0.473758 0.15079015 -0.38367823 -0.7608549
-0.5296449 -0.087594576 -0.26993334 -0.3977597 -0.23548697 0.21315543 -0.6351771 0.053144302
-0.4829915 -0.46079043 0.4781092 -0.35266408 0.14082076 -0.5910757 -0.08265105 -0.28374374
-0.5024426 -0.57595533 0.06385603 -0.7778089 0.055901434 -0.42685497 -0.8645836 0.15506959
0.24343696 0.09592827 -0.005484256 -0.6969521 -0.21682298 -0.31793958 -0.8519054 0.13238621
-0.39998093 0.17815326 0.25236 0.18951395 -0.5625836 -0.045837797 -0.6274952 -0.31591117
00000000: 7f87 dfbe db98 8c3d f0e9 dabd a336 10be
00000010: ff16 9ebe c7ae 86be b06f 653d 8714 0fbf
00000020: 39fb eabc d22e f0be 0a94 95bd 0bc5 56be
00000030: 337b 26be d4cc 79be 0587 75bd 867d 9abd
00000040: d99e 66be cdec ec3e 9aa7 953e f2ff 1cbf
00000050: aa2c bfbe bf7c 13bf 9191 efbe f3d9 58bb
00000060: 4a38 b93d 13ae e2be a6c4 0f3e e4f3 a3bd
00000070: aec9 d33d 4244 ebbe 7746 8fbe 00b0 ef3d
00000080: eda3 7d3e c8dc ddbe a950 cebe 5854 fbbc
00000090: 1b8c 0b3f b5a8 8abf 2017 41be c03e 9bbe
000000a0: 94ac 2abf 9b30 5dbf 405c ee3c b55c 17bf
000000b0: 604c b4be e1cd e3bd cd47 0fbf e1bd e7be
000000c0: b904 aebe f0a8 d2be 4748 7e3d 4761 a6be
000000d0: c5fc 0fbf 1c74 8c3e 0be0 aebe 1608 e9be
000000e0: 5824 88be eaed a8bc b666 83be d166 0cbf
000000f0: 0416 81be 0ab2 8fbe a51f c8be fbeb 73be
00000100: 172f 03bf 419d 21bf 1148 87be 6dac 95be
00000110: 0e82 a93e 8be2 82bd da94 98be 078a f53e
00000120: 9287 94be ab38 b0be f64f 723d b9c1 0abf
00000130: 9896 e2be c844 00bf ffdd 6dbf 09e4 a4be
00000140: 4a77 88bf 8d70 5fbe 54cb 033d 6952 4f3c
00000150: 6990 f2be bc68 1a3e 7971 c4be 63c7 42bf
00000160: cf96 07bf c964 b3bd b434 8abe 29a7 cbbe
00000170: 7f23 71be 6b45 5a3e f79a 22bf d7ad 593d
00000180: a94a f7be b9ec ebbe bbca f43e 6390 b4be
00000190: 5133 103e bd50 17bf f444 a9bd dc46 91be
000001a0: 14a0 00bf cf71 13bf f3c6 823d 7c1e 47bf
000001b0: e7f8 643d bc8c dabe 5a55 5dbf 90ca 1e3e
000001c0: 8a47 793e 0a76 c43d 46b5 b3bb 746b 32bf
000001d0: d806 5ebe fac8 a2be 7916 5abf 4090 073e
000001e0: 4dca ccbe cf6d 363e 5435 813e f20f 423e
000001f0: 7b05 10bf 6ac0 3bbd 87a3 20bf 1cbf a1be

fc3.weight f4 [1, 128]
0.024370486 0.024391187 0.04325371 0.013383905 -0.018269507 -0.0123087205 -0.02694096 0.0054021566
0.002068506 0.00068173883 0.025056805 -0.01232827 -0.02860652 0.026257308 -0.021579467 0.026659306
-0.0146613335 -0.024876162 -0.026473695 -0.023229212 0.014346272 0.020936131 -0.011875906 0.021818355
0.01841883 -0.029435959 -0.014801786 0.010519702 0.035897452 -0.019809015 0.03617813 -0.040314626
-0.013414503 -0.05148714 0.014788724 0.0397296 -0.027828483 -0.018401671 0.031930175 -0.023264542
-0.029747756 -0.013917797 -0.046150554 0.02799093 0.02592981 0.019895244 -0.014651167 0.015230056
-0.025423327 0.008181126 -0.012711094 -0.021781525 -0.002104173 -0.04294798 0.020581556 0.026742788
0.017679043 0.035319727 0.015567197 -0.012032107 -0.017363973 0.018823864 -0.020522883 0.013062832
-0.023848835 -0.032908507 -0.028848954 -0.022489315 -0.025695987 -0.013846022 0.0161709 -0.02502692
0.023201503 -0.01695359 0.012869806 -0.048201166 -0.030293908 0.012992406 -0.025823383 0.0051483293
-0.01943349 0.02708347 0.011335691 0.012947752 0.016986495 -0.021826278 0.013017276 -0.03603825
-0.016369363 0.014747202 -0.02543302 0.016430816 -0.025136402 -0.016148617 -0.008763644 -0.035670895
-0.013599342 -0.03731118 -0.015455051 -0.012969179 -0.024467671 -0.009786049 -0.010931379 0.016721426
-0.021493865 0.00367119 -0.01102563 -0.045068502 -0.016351856 0.24710418 -0.028304266 -0.016225137
-0.03211273 0.018153528 -0.027750775 -0.010187321 -0.014592768 0.014996928 -0.01819169 0.02746185
0.03013017 0.0375042 -0.031376205 -0.015024602 -0.0531504 -0.022910284 -0.017595379 0.02175142
00000000: 9da4 c73c 07d0 c73c cd2a 313d 2b48 5b3c
00000010: efa9 95bc 84aa 49bc 4ab3 dcbc 9304 b13b
00000020: c68f 073b b8b6 323a ee43 cd3c 83fc 49bc
00000030: 3858 eabc 9119 d73c 6cc7 b0bc 9e64 da3c
00000040: 1736 70bc 18c9 cbbc 5ddf d8bc 304b bebc
00000050: a00c 6b3c 4082 ab3c 2993 42bc 68bc b23c
00000060: 16e3 963c ae23 f1bc 3183 72bc d45a 2c3c
00000070: 3509 133d 8446 a2bc 852f 143d f320 25bd
00000080: 81c8 5bbc 2ee4 52bd 674c 723c 81bb 223d
00000090: 8ff8 e3bc 1abf 96bc 37c9 023d 4895 bebc
000000a0: 91b1 f3bc 7907 64bc 5d08 3dbd 3c4d e53c
000000b0: c16a d43c 5afb a23c 730b 70bc 7c87 793c
000000c0: 9544 d0bc 210a 063c 3142 50bc 2b6f b2bc
000000d0: 2ae6 09bb 39ea 2fbd a79a a83c b113 db3c
000000e0: a4d3 903c 6bab 103d 8f0d 7f3c 5122 45bc
000000f0: e43e 8ebc 8134 9a3c 9b1f a8bc 7d05 563c
00000100: a25e c3bc 12cb 06bd a454 ecbc 833b b8bc
00000110: 6480 d2bc 6dda 62bc d678 843c 4105 cdbc
00000120: 1411 be3c 41e2 8abc e1db 523c 966e 45bd
00000130: ee2a f8bc 1ade 543c 8f8b d3bc 51b3 a83b
00000140: fb32 9fbc 27de dd3c 56b9 393c cf22 543c
00000150: 4327 8b3c 06cd b2bc 6a46 553c d89c 13bd
00000160: 0b19 86bc 409e 713c e958 d0bc eb99 863c
00000170: dbea cdbc 1b4a 84bc 6395 0fbc a51b 12bd
00000180: c6cf 5ebc 9cd3 18bd 2f37 7dbc ae7c 54bc
00000190: 6d70 c8bc aa55 20bc 8719 33bc 5ffb 883c
000001a0: e713 b0bc 5998 703b d8a4 34bc c099 38bd
000001b0: 54f4 85bc e108 7d3e 59de e7bc 94ea 84bc
000001c0: a388 03bd b5b6 943c 9855 e3bc b9e8 26bc
000001d0: 8116 6fbc adb5 753c bd06 95bc acf7 e03c
000001e0: 8cd3 f63c 019e 193d 5684 00bd c029 76bc
000001f0: 3cb4 59bd 59ae bbbc 2f24 90bc 0930 b23c
